outputs/model_ckpt.pth (torch, 248811 bytes, 18 tensors)

conv1.weight f4 [64, 3, 9, 9]
0.03586277 0.048059817 -0.039987978 -0.04042344 0.050101377 0.0077017536 -0.020622475 0.101231724
-1.54831 -0.087746955 0.052617583 -0.042319883 0.022495732 -0.017312892 -0.021613723 -0.016940808
-0.74095863 -1.222873 -0.007031861 0.01037535 -0.004968133 -0.051516116 -0.04896424 -0.04533923
0.0013241842 -0.8140198 -1.0958611 0.01746515 0.054639667 -0.053182423 0.059976306 0.08319113
0.06918633 0.085511334 -0.66430205 -1.1453799 -0.045645736 0.05279467 -0.013896764 0.022378698
0.013495413 0.025553051 0.035289645 -0.5674557 -0.28750786 -0.03204275 -0.024812665 0.019277124
-0.034490246 -0.115719944 -0.09394939 0.05164302 -1.1883532 -0.16519172 0.07832273 -0.0065388335
-0.028734995 -0.09487256 -0.12585865 0.01742826 0.29728308 -1.2974628 -0.3080467 -0.026502682
0.033859104 0.048129313 0.25260878 0.14878842 -0.0035780433 -0.07815681 -0.07621902 -0.31408712
-3.8871741 -4.17233 -2.857412 -1.9410628 -1.6235001 -2.1553545 -3.6566815 0.04452082
-0.045831375 0.05018626 -0.023361573 -0.019127995 0.017630644 0.012359101 0.014478246 0.043891925
-0.25466058 -1.7659427 -0.044034448 0.04884344 0.007368308 0.030895535 -0.017058272 0.041899566
-0.012337716 -0.82408583 -1.6981245 0.020458559 -0.02253267 -0.029834364 -0.13854124 -0.03371
-0.031816173 -0.03493826 -1.0814328 -1.5223035 -0.0013973339 0.05510427 -0.013367671 0.05582201
-0.0002145134 0.030201511 -0.043679394 -1.3598411 -1.7116251 0.00029481403 -0.0016269567 0.036720064
-0.030291962 0.08511547 0.0003540323 0.05695572 -0.9013617 -0.9758668 -0.063246794 -0.00821567
-0.04562633 -0.017705692 -0.056798387 0.023064975 0.30379745 -1.4885898 -0.3019503 0.083753064
-0.013228327 0.028814936 -0.033327155 0.020056471 0.21278058 0.5803475 -1.6323808 -0.38785803
-0.06487721 -0.016542148 0.054183908 0.07494858 -0.01289351 -0.294612 -0.5121382 -0.022826485
-0.011725846 -4.8802853 -4.8630533 -3.638602 -2.0548015 -1.4272106 -2.3125832 -4.0785327
-0.043107618 -0.022821525 -0.06334006 -0.03131074 0.018530928 -0.0013540266 -0.014142695 -0.05152913
-0.08608486 0.27051464 -1.3716187 0.045896653 0.081547394 -0.02810707 0.08634893 0.0550477
0.10097562 0.12234551 -0.14102447 -1.2452058 -0.03743816 0.033583418 -0.040357973 -0.10029261
-0.02341494 -0.06394806 -0.036773775 -0.20386204 -0.839806 -0.034276184 0.037012413 -0.04797618
0.047319807 0.060020164 -0.026564969 -0.10737793 -0.37222528 -0.7060872 -0.0028391108 0.066428065
-0.005554005 0.0043121204 -0.009263506 -0.002480193 0.027326316 -1.098003 -0.53329635 -0.029962104
0.07211035 0.033671916 -0.021538723 -0.06428503 -0.0027274757 0.2858404 -1.6137407 -0.30818406
0.01356203 0.01409947 -0.011212652 -0.04304329 0.06464011 0.35322946 0.76761067 -1.8297163
-0.4809711 -0.052872118 -0.08719435 0.0056030005 -0.0008246331 -0.08531431 -0.5289523 -0.800497
-0.06224343 -0.08272877 -3.2990458 -2.4732103 -1.4093832 -1.5183705 -1.2817248 -1.287571
-2.7673686 0.031220663 -0.057194076 0.07907403 -0.09104147 0.033887595 0.10763909 -0.090161994
-0.06572301 0.028004121 0.026104363 -0.012096154 -0.047012758 -0.018563638 -0.0013258631 0.004179478
00000000: d7e4 123d 5fda 443d 6fca 23bd 0d93 25bd
00000010: 1a37 4d3d fe5e fc3b 77f0 a8bc 9452 cf3d
00000020: 062f c6bf adb4 b3bd 8985 573d 9d57 2dbd
00000030: f848 b83c c4d3 8dbc 430f b1bc 73c7 8abc
00000040: 77af 3dbf 1a87 9cbf 876b e6bb 5ffd 293c
00000050: b8cb a2bb 9002 53bd ba8e 48bd a1b5 39bd
00000060: 4090 ad3a 9a63 50bf 2d45 8cbf 1313 8f3c
00000070: d8cd 5f3d d0d5 59bd b7a9 753d 1c60 aa3d
00000080: 90b1 8d3d 9120 af3d b30f 2abf cf9b 92bf
00000090: 06f7 3abd 393f 583d 41af 63bc 8853 b73c
000000a0: dd1b 5d3c a254 d13c e08b 103d c744 11bf
000000b0: 3b34 93be 423f 03bd ee43 cbbc 0feb 9d3c
000000c0: a545 0dbd 94fe ecbd 8a68 c0bd a287 533d
000000d0: f51b 98bf 0528 29be ab67 a03d b643 d6bb
000000e0: a765 ebbc 8b4c c2bd 17e1 00be b6c5 8e3c
000000f0: 7d35 983e 4313 a6bf 4cb8 9dbe 271c d9bc
00000100: d8af 0a3d 3e23 453d f055 813e fe5b 183e
00000110: 9b7d 6abb ad10 a0bd b818 9cbd 07d0 a0be
00000120: 76c7 78c0 ba83 85c0 d7df 36c0 bf74 f8bf
00000130: dace cfbf 54f1 09c0 1207 6ac0 775b 363d
00000140: aeb9 3bbd 1c90 4d3d c560 bfbc 50b2 9cbc
00000150: 246e 903c d47d 4a3c 2a36 6d3c 05c8 333d
00000160: df62 82be 690a e2bf 775d 34bd 0f10 483d
00000170: d971 f13b a218 fd3c cabd 8bbc e19e 2b3d
00000180: 2224 4abc 4af7 52bf 255c d9bf b598 a73c
00000190: 6f96 b8bc 3267 f4bc c1dd 0dbe 7f13 0abd
000001a0: ad51 02bd 6c1b 0fbd 646c 8abf d7da c2bf
000001b0: bf26 b7ba 04b5 613d 1304 5bbc 9fa5 643d
000001c0: 01ef 60b9 2969 f73c 2ae9 32bd 460f aebf
000001d0: 8816 dbbf 4591 9a39 9c3f d5ba c767 163d
000001e0: d926 f8bc 0551 ae3d 699d b939 674a 693d
000001f0: a4bf 66bf 68d2 79bf 8987 81bd 049b 06bc
00000200: ade2 3abd 870b 91bc 6da5 68bd c2f2 bc3c
00000210: 578b 9b3e 1c8a bebf 3b99 9abe ba86 ab3d
00000220: a0bb 58bc 4d0d ec3c 0e82 08bd 784d a43c
00000230: 27e3 593e a791 143f dbf1 d0bf 5495 c6be
00000240: 58de 84bd 6683 87bc f2ef 5d3d a47e 993d
00000250: 4d3f 53bc 62d7 96be 7d1b 03bf 9cfe babc
00000260: c31d 40bc 4c2b 9cc0 229e 9bc0 dbde 68c0
00000270: de81 03c0 d6ae b6bf 5d01 14c0 5783 82c0
00000280: 9d91 30bd 35f4 babc 6fb8 81bd b13f 00bd
00000290: 2cce 973c 9879 b1ba c3b6 67bc 3610 53bd
000002a0: 424d b0bd e580 8a3e 3491 afbf 21fe 3b3d
000002b0: 5202 a73d cc40 e6bc b5d7 b03d b279 613d
000002c0: 4ecc ce3d 4890 fa3d b868 10be e762 9fbf
000002d0: c258 19bd c48e 093d 674e 25bd 3666 cdbd
000002e0: b0d0 bfbc 33f7 82bd 19a0 16bd 36c1 50be
000002f0: 87fd 56bf 2f65 0cbd 549a 173d ac82 44bd
00000300: 6ad2 413d b4d7 753d c79e d9bc f6e8 dbbd
00000310: 5094 bebe 21c2 34bf 6010 3abb 700b 883d
00000320: 5ffe b5bb b04c 8d3b f6c5 17bc bc8a 22bb
00000330: 70db df3c 5d8b 8cbf 1c86 08bf 1673 f5bc
00000340: 97ae 933d 90eb 093d fa71 b0bc dfa7 83bd
00000350: 73bf 32bb ac59 923e 0e8f cebf 4dca 9dbe
00000360: 4733 5e3c 7701 673c 45b5 37bc 294e 30bd
00000370: 0962 843d 7eda b43e 2282 443f 2534 eabf
00000380: d841 f6be 6f90 58bd f492 b2bd 6099 b73b
00000390: 312c 58ba 45b9 aebd 6b69 07bf 5fed 4cbf
000003a0: f8f2 7ebd b46d a9bd 9123 53c0 1449 1ec0
000003b0: ab66 b4bf f759 c2bf 8f0f a4bf 20cf a4bf
000003c0: 911c 31c0 7ac2 ff3c 5644 6abd 91f1 a13d
000003d0: f373 babd b8cd 0a3d e271 dc3d daa6 b8bd
000003e0: c999 86bd e668 e53c d1d8 d53c f22e 46bc
000003f0: 7390 40bd c512 98bc 95c8 adba 01f4 883b

conv1.bias f4 [64]
-0.018473625 0.04887602 -0.052469697 -0.1698187 -0.08276686 0.12823132 0.016116334 0.05723068
0.061111033 0.084588274 -0.025509441 0.038771383 -0.09854847 0.0034574722 0.20016362 0.17350014
0.03171811 -0.015776712 0.054889314 0.07127706 0.07305862 0.04003034 -0.00067370705 -0.016211187
0.1320465 0.045742 0.11827112 0.091262 0.072107576 -0.15338252 0.09561752 0.03931731
-0.032386784 0.008757175 -0.00014751407 -0.1444119 0.072835036 0.0006914346 0.009649519 0.15370634
0.1686914 0.021479469 0.041395873 0.041782018 0.102387555 0.10967068 0.02960493 -0.009925792
-0.061592653 -0.068423696 0.053751003 0.055591606 0.09587881 -0.036903713 0.1073293 0.13818567
-0.040663768 0.0467494 -0.13552059 -0.05779378 0.016133621 -0.29411662 0.23500745 -0.066651486
00000000: 0056 97bc 3932 483d 77ea 56bd f4e4 2dbe
00000010: ac81 a9bd 124f 033e 6706 843c b86a 6a3d
00000020: 904f 7a3d 9e3c ad3d 2df9 d0bc bece 1e3d
00000030: c8d3 c9bd c296 623b b1f7 4c3e 05aa 313e
00000040: d9ea 013d 2a3e 81bc 9ed3 603d b5f9 913d
00000050: c29f 953d dbf6 233d b79b 30ba 53cd 84bc
00000060: 3337 073e f75b 3b3d 2138 f23d 92e7 ba3d
00000070: 23ad 933d 4f10 1dbe 1ed3 c33d 300b 213d
00000080: 01a8 04bd 417a 0f3c 02ae 1ab9 b7e0 13be
00000090: 892a 953d 6441 353a 0419 1e3c 3265 1d3e
000000a0: 70bd 2c3e b6f5 af3c b88e 293d 9f23 2b3d
000000b0: 91b0 d13d 059b e03d 0a86 f23c ca9f 22bc
000000c0: 9448 7cbd b921 8cbd 032a 5c3d 06b4 633d
000000d0: 1c5c c43d 5928 17bd 77cf db3d 8b80 0d3e
000000e0: 0d8f 26bd 4d7c 3f3d e9c5 0abe 2cb9 6cbd
000000f0: a82a 843c 7496 96be cba5 703e 9380 88bd

conv2.weight f4 [32, 64, 1, 1]
-0.1783509 0.0069453614 0.09889047 -0.20023628 0.17961973 -0.0100868065 0.011583105 -0.18513073
-0.11540599 -0.019000854 -0.2799473 -0.2165138 -0.026285952 -0.035771057 0.12403666 -0.030045133
-0.014759757 -0.024409175 0.04747486 0.07055175 -0.052599486 0.17528613 -0.0365547 0.07405905
-0.042483304 0.15494844 -0.08594178 -0.031553734 -0.050334778 0.26976258 0.01935889 -0.029155917
-0.006038934 0.15059957 -0.055448316 0.013642458 -0.035592 0.020135043 -0.034674995 0.046495102
-0.0372235 -0.007444253 0.036781415 0.043615073 0.03653875 0.08350877 0.15521419 -0.33999655
0.055625558 0.12864928 0.0038213509 -0.0016428392 -0.038350184 0.06771413 -0.07858668 -0.039320804
0.06554266 -0.26388612 -0.32547393 0.017323421 -0.05763232 -0.17201017 0.0027843106 0.09688467
0.6815248 -0.04742948 -0.095565796 -0.0041481275 0.08160174 0.060830645 0.0608037 -0.44145894
0.12224886 0.14788958 -0.029153744 0.1913601 0.09275655 -0.17817491 -0.11583492 0.053583466
0.14653176 -0.014224376 0.09499027 0.0488332 -0.01623492 -0.054789726 -0.21175228 0.24469301
-0.13268496 -0.12752308 0.010352829 0.036409896 0.014875674 0.030681264 0.06827346 -0.102738865
0.11497558 -0.027504645 0.30499396 -0.022064611 -0.003175807 0.29659265 0.26939213 0.041884102
-0.063850224 0.004313832 0.089540005 -0.0486689 -0.07423661 -0.07847339 0.2952027 -0.08162085
-0.059155103 -0.06018373 0.27471852 -0.017016124 -0.017029615 -0.0736797 0.07543978 -0.075163364
-0.029836994 -0.11535513 0.03222403 0.0033474732 0.16469698 -0.04461333 0.004779652 0.103312
-0.12605566 -0.051228907 -0.019309914 -0.30596673 -0.19517201 0.076618336 -0.17059389 0.029369405
-0.24735118 -0.19237374 0.09122358 0.1762834 0.059119996 -0.09475004 -0.09040139 -0.14691377
-0.25400475 -0.04955858 0.016883502 -0.13945687 0.027677763 0.029249188 0.059752513 0.1556375
0.08175195 0.10996276 -0.15560769 -0.1794695 0.14211644 0.071954876 -9.085726e-05 0.077273495
0.0445793 -0.12737884 0.27551746 0.11817419 0.078580216 0.03641712 0.2948274 -0.17844862
-0.19114856 -0.08658263 -0.025534289 -0.22408517 -0.028598139 -0.08736857 0.098097995 0.09674382
-0.028092764 -0.28619403 0.25630906 -0.20312996 0.14320025 0.2544322 0.00657751 0.06461363
-0.08022868 -0.08580368 0.07269525 0.21971075 -0.31364396 -0.0017913355 0.058045123 -0.08509662
0.95959616 0.03619383 -0.068976305 0.0665276 0.009079797 0.08543754 0.41307646 -0.25100225
-0.012832376 0.0072608697 -0.42356542 -0.04762122 0.014988158 -1.4170312 -0.12066237 0.093650505
0.028508335 0.06365253 0.015105452 0.027364979 -0.12499963 -0.28286985 -2.0115879 0.04309691
0.00064428995 0.07045822 -6.8982263e-06 -0.0021260378 0.12765673 -0.016766824 -0.15986238 -0.10104294
0.12865311 -0.0140348915 0.50397027 -0.036076922 -0.12821811 0.61362624 0.10470931 -0.03358627
-0.012006706 0.0980598 -0.049926553 0.032389946 -0.0413711 0.014566098 -0.112172276 -0.22323915
-0.08448649 0.0040202937 0.47420275 0.026385702 0.118916884 -0.22674805 0.013820063 -0.016458992
0.0015733571 -0.083141424 -0.044932734 -0.022027515 0.41907862 0.0054294104 -0.023321893 -0.084338985
00000000: 9ea1 36be ea95 e33b 1687 ca3d bd0a 4dbe
00000010: 3cee 373e 2243 25bc 10c7 3d3c e992 3dbe
00000020: fa59 ecbd aea7 9bbc 4155 8fbe cbb5 5dbe
00000030: a355 d7bc ac84 12bd ef06 fe3d 3621 f6bc
00000040: e8d2 71bc c0f5 c7bc 0075 423d 707d 903d
00000050: 8f72 57bd 357e 333e 62ba 15bd 45ac 973d
00000060: f902 2ebd ceaa 1e3e 3e02 b0bd 7d3e 01bd
00000070: d72b 4ebd 521e 8a3e 8996 9e3c 64d8 eebc
00000080: 40e2 c5bb c636 1a3e c61d 63bd 9e84 5f3c
00000090: ebc8 11bd 3ff2 a43c 5e07 0ebd a671 3e3d
000000a0: ab77 18bd ecee f3bb 1ca8 163d b8a5 323d
000000b0: a8a9 153d a506 ab3d 78f0 1e3e 0714 aebe
000000c0: a0d7 633d a3bc 033e a16f 7a3b 8954 d7ba
000000d0: 1515 1dbd b5ad 8a3d 0ef2 a0bd da0e 21bd
000000e0: 3b3b 863d 151c 87be 85a4 a6be d9e9 8d3c
000000f0: de0f 6cbd 6f23 30be fb78 363b 786b c63d
00000100: 6978 2e3f 6a45 42bd 00b8 c3bd 04ed 87bb
00000110: d01e a73d 8e29 793d 4d0d 793d e806 e2be
00000120: 9c5d fa3d 5e70 173e d5d3 eebc e7f3 433e
00000130: 25f7 bd3d 7c73 36be dc3a edbd 567a 5b3d
00000140: 6c0c 163e 5b0d 69bc 428a c23d 5205 483d
00000150: 18ff 84bc 316b 60bd 97d5 58be ce90 7a3e
00000160: 91de 07be 6995 02be e99e 293c 8b22 153d
00000170: 19b9 733c 4657 fb3c f5d2 8b3d c168 d2bd
00000180: 5178 eb3d 6c51 e1bc 2b28 9c3e d8c0 b4bc
00000190: 3321 50bb feda 973e c4ed 893e aa8e 2b3d
000001a0: e8c3 82bd 0c5b 8d3b c060 b73d 0a59 47bd
000001b0: 5d09 98bd a8b6 a0bd cf24 973e d528 a7bd
000001c0: 9f4c 72bd 3783 76bd e8a7 8c3e 6665 8bbc
000001d0: b181 8bbc 62e5 96bd 2c80 9a3d 40ef 99bd
000001e0: b66c f4bc 4f3f ecbd 58fd 033d 4861 5b3b
000001f0: 53a6 283e 78bc 36bd a19e 9c3b 3e95 d33d
00000200: bc14 01be 67d5 51bd d32f 9ebc aca7 9cbe
00000210: 2cdb 47be 13ea 9c3d 2ab0 2ebe 1b98 f03c
00000220: a149 7dbe 9ffd 44be 6ed3 ba3d a383 343e
00000230: cf27 723d 4f0c c2bd 5d24 b9bd 9070 16be
00000240: e90c 82be f0fd 4abd 454f 8a3c c8cd 0ebe
00000250: 7abc e23c fe9b ef3c 0dbf 743d 705f 1f3e
00000260: 916d a73d 2834 e13d 9f57 1fbe dac6 37be
00000270: f986 113e 145d 933d 9f8a beb8 9141 9e3d
00000280: c998 363d 996f 02be a010 8d3e 4f05 f23d
00000290: aaee a03d 1e2a 153d 9ef3 963e 3cbb 36be
000002a0: 73bc 43be 3c52 b1bd 492d d1bc 9576 65be
000002b0: a546 eabc 4bee b2bd 9ae7 c83d a021 c63d
000002c0: cc22 e6bc 0688 92be f13a 833e 4d01 50be
000002d0: 16a3 123e f044 823e 2788 d73b 2754 843d
000002e0: ef4e a4bd d7b9 afbd 3fe1 943d dbfb 603e
000002f0: f195 a0be 3fcb eaba b9c0 6d3d 2347 aebd
00000300: 18a8 753f fb3f 143d 7343 8dbd 9f3f 883d
00000310: 6ec3 143c e1f9 ae3d c27e d33e 5e83 80be
00000320: e33e 52bc 97ec ed3b 91dd d8be 780e 43bd
00000330: e490 753c 4761 b5bf d51d f7bd d6cb bf3d
00000340: 508a e93c 425c 823d dc7c 773c 852c e03c
00000350: ceff ffbd 51d4 90be dbbd 00c0 6386 303d
00000360: 91e5 283a 664c 903d 5077 e7b6 ff54 0bbb
00000370: 72b8 023e 945a 89bc f7b2 23be 9aef cebd
00000380: a4bd 033e 9af2 65bc 3204 013f 65c5 13bd
00000390: 9c4b 03be 9c16 1d3f d671 d63d c291 09bd
000003a0: c6b7 44bc 94d3 c83d c97f 4cbd 52ab 043d
000003b0: be74 29bd a5a6 6e3c 94ba e5bd ce98 64be
000003c0: 4107 adbd abbc 833b b4ca f23e d426 d83c
000003d0: b28a f33d a430 68be 8c6d 623c 02d5 86bc
000003e0: 1b39 ce3a 0d46 aabd 630b 38bd 0c73 b4bc
000003f0: 7991 d63e 32e9 b13b 8e0d bfbc ebb9 acbd

conv2.bias f4 [32]
-0.07222449 0.020893395 0.08252308 -0.0054667154 -0.029648487 -0.0016153058 -0.050286844 -0.0026469154
0.04955014 -0.008842485 -0.051609404 -0.0090543805 0.034027684 0.013608919 -0.038794897 0.021173116
-0.010586033 -0.006351322 0.0007213348 -0.0014284574 0.0076303687 -0.0019927346 -0.04181729 -0.012272641
-0.043838356 -0.20852879 0.034432992 -0.045364782 0.032689307 0.0065456107 0.013391896 -0.051108684
00000000: 6fea 93bd a028 ab3c dc01 a93d 2222 b3bb
00000010: 62e1 f2bc abb8 d3ba 94f9 4dbd df77 2dbb
00000020: 16f5 4a3d 12e0 10bc 6264 53bd d358 14bc
00000030: 9d60 0b3d f2f7 5e3c 66e7 1ebd 3e73 ad3c
00000040: 0a71 2dbc c01e d0bb f617 3d3a 143b bbba
00000050: 2c08 fa3b 8a98 02bb 9b48 2bbd 3013 49bc
00000060: d98f 33bd 9288 55be 9c09 0d3d 6cd0 39bd
00000070: 39e5 053d 907c d63b af69 5b3c 5757 51bd

conv3.weight f4 [3, 32, 5, 5]
0.043077376 -0.015605398 -0.021028852 -0.038905974 -0.02812465 0.10245852 -0.04002463 0.12244023
0.058988158 0.017929954 -0.013264915 -0.06722078 -0.014813643 -0.0318089 0.02112512 -0.05383516
-0.06990046 -0.037766483 0.008354217 0.020161713 0.008946816 0.035954505 0.012361983 0.006054719
0.00087990053 -0.07497009 -0.011593762 0.024643203 -0.0044678613 -0.044083107 -0.031579692 0.037376765
0.04961298 0.033735078 0.0001601942 -0.01571111 0.067095384 0.05412867 0.023886845 0.026635893
-0.00336685 0.041659787 0.0074805343 0.026944656 0.02337275 -0.0051677604 -0.020245105 -0.053056248
-0.0028405292 -0.00826884 0.03904619 -0.09519572 -0.12641993 0.05270961 0.09253945 -0.07057859
-0.104955144 -0.0075902953 -0.06298061 -0.0038349219 -0.06896819 0.043276213 0.22430076 0.024030825
-0.071526825 0.02167987 0.016251331 0.007114178 -0.0423267 -0.001863243 0.1176742 0.024043575
-0.10455218 -0.05019209 0.0584068 0.0131974695 0.022483122 -0.00653294 -0.08393095 -0.091638334
0.026649784 0.041695386 0.0044793487 -0.05410938 -0.06126548 0.0017800486 0.0043478524 -0.046493817
-0.015102652 -0.013214298 0.0021189048 -0.004981761 -0.021558963 0.014910701 0.013156987 0.019934313
0.012959982 0.03291226 0.03075265 -0.005945329 0.097252 0.12565239 0.12852591 0.09632192
0.06947617 0.060579937 0.0891973 0.087420166 0.03592884 -0.0014890961 0.031487487 0.0532418
0.03741913 -0.00046823054 -0.017903501 0.00040014583 0.0041867252 0.030252414 0.0070842546 -0.010560726
-0.02914239 -0.019806076 -0.009235346 -0.009601155 -0.00515776 0.018351553 0.009614953 -0.016332062
-0.038194146 -0.030284941 0.044033617 0.046896365 0.024374053 -0.008614392 0.006577581 0.09912033
0.08572814 0.03618762 -0.03165092 -0.008517653 0.18994002 0.13848156 0.015416358 -0.052475072
0.010747872 0.2620958 0.18848051 0.085993595 0.010663844 0.035076834 -0.10335238 -0.020158924
0.07142941 0.09847146 0.13408914 -0.042559143 0.017807433 0.06295582 0.13237934 0.1632969
-0.002943467 0.06733581 0.047002036 0.18337665 0.21841103 0.020023508 0.050203934 0.12618521
0.22480115 0.2220793 0.0014557117 0.05375555 0.099405244 0.17051612 0.19333848 -0.009606171
-0.038915105 -0.030932194 -0.051513705 -0.061608467 -0.002364238 0.0035149374 0.036467668 -0.060321156
-0.048508123 0.009593942 0.041449614 0.14121877 0.0340849 -0.005350296 0.023721423 -0.020086978
0.022967432 0.03415438 0.016854325 0.045662157 0.021411743 -0.04928259 0.0030135727 0.039245546
0.025002435 -0.009031662 -0.051847823 -0.036439274 -0.03726863 0.053606827 -0.036341824 -0.053090364
-0.034495085 -0.042673014 0.021788375 -0.048179604 -0.001132118 -0.018657634 -0.03592672 -0.016311485
0.018479375 0.06149619 0.027631374 -0.01774457 -0.0054846588 -0.004326846 0.06625734 0.04319927
0.0088728415 -0.06903207 -0.08820615 -0.09020544 -0.044540998 -0.02096358 -0.019725882 -0.02162985
-0.046878148 -0.039911095 -0.033603415 -0.009713342 -0.005208934 -0.0065798587 -0.019861767 -0.0018891881
0.012856721 0.02724309 0.017572569 0.0517235 0.021911208 0.009368157 0.00388222 0.07587569
0.090074085 0.05177826 0.042812765 0.032896366 0.032552283 0.038173243 0.040779587 0.0302833
00000000: e771 303d c9ad 7fbc b344 acbc df5b 1fbd
00000010: aa65 e6bc c6d5 d13d def0 23bd f1c1 fa3d
00000020: 919d 713d d7e1 923c 1655 59bc 0cab 89bd
00000030: ecb4 72bc 0d4a 02bd 960e ad3c 4282 5cbd
00000040: f927 8fbd 07b1 1abd 20e0 083c 2d2a a53c
00000050: ab95 123c 0845 133d ea89 4a3c aa66 c63b
00000060: 20a9 663a eb89 99bd c3f3 3dbc 8be0 c93c
00000070: 2367 92bb 7d90 34bd b559 01bd 6118 193d
00000080: fb36 4b3d cb2d 0a3d cef9 2739 96b4 80bc
00000090: 4e69 893d 06b6 5d3d 58ae c33c 8433 da3c
000000a0: 5fa6 5cbb 74a3 2a3d 451f f53b 0abb dc3c
000000b0: 3678 bf3c 5156 a9bb 10d9 a5bc 8251 59bd
000000c0: 2c28 3abb 077a 07bc e6ee 1f3d f9f5 c2bd
000000d0: 3a74 01be 08e6 573d 5385 bd3d 828b 90bd
000000e0: b9f2 d6bd 03b8 f8bb fafb 80bd 5053 7bbb
000000f0: 323f 8dbd 6642 313d 19af 653e 4bdc c43c
00000100: a87c 92bd fc99 b13c 8321 853c 0d1e e93b
00000110: c35e 2dbd 0f38 f4ba 2cff f03d 08f7 c43c
00000120: 741f d6bd 3996 4dbd f83b 6f3d 333a 583c
00000130: 862e b83c 4612 d6bb fde3 abbd e1ac bbbd
00000140: a650 da3c c8c8 2a3d 80c7 923b cca1 5dbd
00000150: 83f1 7abd 8550 e93a 6e78 8e3b 4d70 3ebd
00000160: 1d71 77bc c880 58bc 53dd 0a3b 0a3e a3bb
00000170: 6c9c b0bc 034c 743c 6790 573c 494d a33c
00000180: 1b56 543c 02cf 063d fbec fb3c 09d1 c2bb
00000190: 0e2c c73d 05ab 003e 4c9c 033e 6d44 c53d
000001a0: 8649 8e3d ab22 783d 13ad b63d 5809 b33d
000001b0: 1f2a 133d c62d c3ba 06f9 003d 1314 5a3d
000001c0: cd44 193d d77c f5b9 5daa 92bc aaca d139
000001d0: cc30 893b e9d3 f73c 0923 e83b e506 2dbc
000001e0: 05bc eebc 5a40 a2bc d94f 17bc 2a4e 1dbc
000001f0: 6d02 a9bb ff55 963c 0988 1d3c d1ca 85bc
00000200: 7771 1cbd 2018 f8bc 985c 343d 6716 403d
00000210: 18ac c73c 6123 0dbc c088 d73b 99ff ca3d
00000220: 3c92 af3d 7839 143d 65a4 01bd a08d 0bbc
00000230: a37f 423e 1cce 0d3e e494 7c3c 1af0 56bd
00000240: d817 303c 6c31 863e 0901 413e 691d b03d
00000250: 67b7 2e3c baac 0f3d 6aaa d3bd 5424 a5bc
00000260: 9549 923d 68ab c93d aa4e 093e 7f52 2ebd
00000270: e5e0 913c fbee 803d 738e 073e 4d37 273e
00000280: 2fe7 40bb 5be7 893d 3585 403d 17c7 3b3e
00000290: 24a7 5f3e 5708 a43c a4a2 4d3d b236 013e
000002a0: 4632 663e c268 633e 94cd be3a c82e 5c3d
000002b0: fa94 cb3d c79b 2e3e 86fa 453e 3463 1dbc
000002c0: 7265 1fbd 8365 fdbc 0900 53bd 2959 7cbd
000002d0: 55f1 1abb dd5a 663b 1f5f 153d 5113 77bd
000002e0: 74b0 46bd e92f 1d3c 12c7 293d a79b 103e
000002f0: 9c9c 0b3d 8951 afbb 6e53 c23c 728d a4bc
00000300: 3226 bc3c 77e5 0b3d 1512 8a3c 3e08 3b3d
00000310: ae67 af3c 8bdc 49bd 5c7f 453b f0bf 203d
00000320: e8d1 cc3c 89f9 13bc 625e 54bd 5941 15bd
00000330: fea6 18bd d592 5b3d 2adb 14bd 4875 59bd
00000340: b84a 0dbd e6c9 2ebd 897d b23c fa57 45bd
00000350: 9463 94ba e5d7 98bc e527 13bd aa9f 85bc
00000360: 0f62 973c 6ee3 7b3d 315b e23c 0f5d 91bc
00000370: a7b8 b3bb 37c8 8dbb eeb1 873d b8f1 303d
00000380: 655f 113c b060 8dbd 6da5 b4bd a1bd b8bd
00000390: 9f70 36bd d0bb abbc 2c98 a1bc 1531 b1bc
000003a0: 4d03 40bd d179 23bd bca3 09bd b624 1fbc
000003b0: b5af aabb db9b d7bb 25b5 a2bc a29e f7ba
000003c0: ffa4 523c e72c df3c 59f4 8f3c 05dc 533d
000003d0: 227f b33c e67c 193c d86c 7e3b b764 9b3d
000003e0: c378 b83d 7115 543d 705c 2f3d 57be 063d
000003f0: 8b55 053d 8c5b 1c3d 7f08 273d af14 f83c

conv3.bias f4 [3]
0.0021438547 0.016936967 -0.019395815
00000000: ea7f 0c3b 65bf 8a3c f9e3 9ebc

exp_avg f4 [64, 3, 9, 9]
-3.4453623e-07 -3.7104815e-07 -4.1374324e-07 -4.4544515e-07 -4.1178248e-07 -3.289179e-07 -2.790939e-07 2.1330179e-11
2.758022e-11 -4.004503e-07 -4.2623049e-07 -4.5470887e-07 -4.6157837e-07 -4.161518e-07 -3.386857e-07 -2.9297865e-07
4.5126305e-11 3.7266327e-12 -4.7667834e-07 -5.257142e-07 -5.4092885e-07 -4.9706625e-07 -4.2840182e-07 -3.7928822e-07
-3.495055e-07 4.3619e-11 3.7266037e-12 -5.396247e-07 -5.949149e-07 -5.9608897e-07 -5.2753427e-07 -4.4525459e-07
-4.1692542e-07 -3.9859066e-07 1.5850371e-11 -2.6314398e-12 -5.559649e-07 -6.101376e-07 -6.086244e-07 -5.3904614e-07
-4.6536198e-07 -4.505808e-07 -4.4117382e-07 -9.51267e-13 -4.1303337e-12 -5.2794496e-07 -5.7263503e-07 -5.684533e-07
-5.079407e-07 -4.532495e-07 -4.413229e-07 -4.3309578e-07 -1.3443296e-11 9.524032e-11 -4.950466e-07 -5.310347e-07
-5.263546e-07 -4.802631e-07 -4.3189934e-07 -4.0689505e-07 -3.9199176e-07 7.169342e-11 2.1437718e-10 -1.0763472e-07
-1.1593144e-07 -1.2895424e-07 -1.4726842e-07 -1.5275353e-07 -1.3620283e-07 -1.2521829e-07 2.3933019e-11 4.7938094e-11
4.6994395e-09 2.2749786e-09 3.0645103e-10 2.8923697e-10 1.7458675e-10 -2.1726356e-12 4.283446e-12 -6e-45
-6e-45 -2.0998979e-07 -2.3364328e-07 -2.6454106e-07 -2.8411753e-07 -2.3975605e-07 -1.6012638e-07 -1.07486926e-07
1.4617605e-12 3.2225566e-12 -2.6499407e-07 -2.8378258e-07 -2.9532006e-07 -2.8159283e-07 -2.2636249e-07 -1.5983426e-07
-1.18666776e-07 1.7798007e-13 3.004486e-12 -3.3650372e-07 -3.7369708e-07 -3.6892607e-07 -3.0485816e-07 -2.2760233e-07
-1.829581e-07 -1.5445715e-07 6.086679e-13 2.6592615e-12 -3.9730705e-07 -4.3839694e-07 -4.1670324e-07 -3.279828e-07
-2.3588126e-07 -2.002557e-07 -1.7550849e-07 -2.5726916e-12 -2.4215447e-12 -4.1017523e-07 -4.496668e-07 -4.2665857e-07
-3.393502e-07 -2.5657485e-07 -2.336354e-07 -2.1973952e-07 -2.0533005e-12 8.9593825e-11 -3.633305e-07 -3.9511804e-07
-3.8085062e-07 -3.1752072e-07 -2.5838858e-07 -2.4340977e-07 -2.3428635e-07 -6.046851e-12 1.1923579e-10 -3.0461544e-07
-3.3665359e-07 -3.3662346e-07 -3.063191e-07 -2.6371814e-07 -2.406787e-07 -2.2617698e-07 8.286583e-11 2.1442295e-10
-1.0022916e-08 -1.2180408e-08 -2.700719e-08 -5.2902195e-08 -5.4410435e-08 -2.9945085e-08 -1.5054127e-08 2.3932703e-11
4.7866322e-11 4.736704e-09 1.6877301e-09 1.0415094e-10 1.815387e-11 -4.380639e-13 1.4674413e-11 2.6297348e-11
-6e-45 -6e-45 -8.132278e-08 -9.590681e-08 -1.2776337e-07 -1.5329451e-07 -1.335152e-07 -7.588753e-08
-3.989959e-08 3.5587946e-10 3.9979722e-10 -1.4027157e-07 -1.6820323e-07 -1.9053488e-07 -1.8878855e-07 -1.5387859e-07
-1.091351e-07 -8.0513786e-08 -4.1055293e-12 1.6918839e-10 -2.0304665e-07 -2.5803922e-07 -2.6840655e-07 -2.2135906e-07
-1.6413414e-07 -1.34993e-07 -1.15676926e-07 -1.9895004e-12 -9.880405e-13 -2.5975282e-07 -3.15931e-07 -3.0995565e-07
-2.3675635e-07 -1.6274831e-07 -1.3533011e-07 -1.15057844e-07 -1.5468991e-12 -1.2320418e-12 -2.6673155e-07 -3.1152635e-07
-2.97074e-07 -2.2246613e-07 -1.5134655e-07 -1.2896396e-07 -1.14777066e-07 5.8465147e-13 2.4910111e-13 -2.1931024e-07
-2.6011935e-07 -2.4655455e-07 -1.8558357e-07 -1.2469053e-07 -9.9352235e-08 -8.4594376e-08 3.5137965e-13 9.5303855e-11
-1.627858e-07 -2.0744808e-07 -2.085295e-07 -1.668501e-07 -1.1373622e-07 -7.692907e-08 -5.1213817e-08 8.9953926e-11
1.5102662e-10 3.5268584e-08 2.5854376e-08 1.6037518e-08 7.2848962e-09 2.7475807e-08 6.688646e-08 9.2246594e-08
2.3932648e-11 1.07374054e-10 4.1265302e-09 1.032501e-09 -1.4903236e-12 1.1454172e-10 9.0959545e-11 9.602711e-13
1.1066983e-11 -6e-45 -6e-45 2.1403694e-06 1.502639e-06 1.6855475e-06 1.9999857e-06 2.0616226e-06
2.1753935e-06 2.8221282e-06 4.73974e-06 3.886571e-06 2.7265291e-06 2.5097752e-06 3.2948583e-06 3.0518106e-06
00000000: b3f8 b8b4 7834 c7b4 7020 deb4 8425 efb4
00000010: f412 ddb4 2296 b0b4 60d6 95b4 4b9f bb2d
00000020: 2299 f22d 78fd d6b4 acd4 e4b4 b61e f4b4
00000030: d9ce f7b4 786b dfb4 9cd4 b5b4 ae4a 9db4
00000040: b477 462e 861e 832c 2cea ffb4 ce1e 0db5
00000050: 5934 11b5 226e 05b5 19ff e5b4 faa0 cbb4
00000060: aca3 bbb4 a1d6 3f2e 431e 832c bada 10b5
00000070: 3eb2 1fb5 ec02 20b5 e19b 0db5 530b efb4
00000080: cbd5 dfb4 e2fd d5b4 dd6b 8b2d ce2b 39ac
00000090: 9e3d 15b5 56c8 23b5 5a60 23b5 f8b2 10b5
000000a0: ddd6 f9b4 5be7 f1b4 78da ecb4 01e1 85ab
000000b0: bd52 91ac 1ab8 0db5 2eb7 19b5 d097 18b5
000000c0: 6b59 08b5 2356 f3b4 f5ee ecb4 3b84 e8b4
000000d0: 397f 6cad 896f d12e 58e3 04b5 6d8c 0eb5
000000e0: d04a 0db5 6eeb 00b5 cbdf e7b4 3b73 dab4
000000f0: f072 d2b4 cfa7 9d2e d0b5 6b2f d024 e7b3
00000100: fcf5 f8b3 ac76 0ab4 d620 1eb4 9204 24b4
00000110: 263f 12b4 be73 06b4 5e84 d22d 7fd5 522e
00000120: b578 a131 d955 1c31 2679 a82f 7c02 9f2f
00000130: cdf5 3f2f b9e2 18ac dab5 962c 0400 0080
00000140: 0400 0080 8e79 61b4 60df 7ab4 3f06 8eb4
00000150: d188 98b4 d2b7 80b4 34ef 2bb4 90d3 e6b3
00000160: 79b9 cd2b 6bc4 622c 8244 8eb4 c85a 98b4
00000170: 7b8c 9eb4 d32d 97b4 0c0e 73b4 e89e 2bb4
00000180: c0d5 feb3 4363 482a 026c 532c b8a8 b4b4
00000190: 89a0 c8b4 d010 c6b4 63ab a3b4 da62 74b4
000001a0: 2473 44b4 dcd8 25b4 2553 2b2b ff20 3b2c
000001b0: 774d d5b4 d15c ebb4 42b7 dfb4 9d15 b0b4
000001c0: 8c46 7db4 de05 57b4 6873 3cb4 7e09 35ac
000001d0: ac66 2aac 0e36 dcb4 bc69 f1b4 820f e5b4
000001e0: f02f b6b4 61bf 89b4 36dd 7ab4 8af1 6bb4
000001f0: f97c 10ac d704 c52e c40f c3b4 9c20 d4b4
00000200: b677 ccb4 b777 aab4 a8b8 8ab4 fcad 82b4
00000210: 2490 7bb4 31c1 d4ac e419 032f 078a a3b4
00000220: 51bd b4b4 2db9 b4b4 2d74 a4b4 2595 8db4
00000230: a136 81b4 0edb 72b4 5139 b62e b2c2 6b2f
00000240: 4031 2cb2 0042 51b2 70fd e7b2 9436 63b3
00000250: e8b0 69b3 f89c 00b3 6050 81b2 a883 d22d
00000260: b084 522e 7dc0 a231 b9f5 e730 c407 e52e
00000270: e2ae 9f2d a99b f6aa d713 812d 5d50 e72d
00000280: 0400 0080 0400 0080 aca3 aeb3 54f5 cdb3
00000290: 542f 09b4 4699 24b4 615c 0fb4 9cf7 a2b3
000002a0: 105e 2bb3 95a5 c32f 75ca db2f 8e9d 16b4
000002b0: 5a9b 34b4 d495 4cb4 cdb5 4ab4 d339 25b4
000002c0: a85d eab3 ece6 acb3 5273 90ac 4c06 3a2f
000002d0: 0a05 5ab4 a488 8ab4 8419 90b4 b7ae 6db4
000002e0: d93c 30b4 98f2 10b4 106a f8b3 a7ff 0bac
000002f0: e90d 8bab 2874 8bb4 3a9d a9b4 fb67 a6b4
00000300: 1737 7eb4 eabf 2eb4 424f 11b4 b815 f7b3
00000310: eab4 d9ab fc64 adab 4e33 8fb4 db3f a7b4
00000320: 8a7d 9fb4 06df 6eb4 d381 22b4 5879 0ab4
00000330: 5c7b f6b3 9490 242b 413b 8c2a 8a7b 6bb4
00000340: 88a6 8bb4 335e 84b4 d344 47b4 ace2 05b4
00000350: 785b d5b3 40aa b5b3 25cf c52a 4d93 d12e
00000360: 38ca 2eb4 e5be 5eb4 27e8 5fb4 6827 33b4
00000370: 263f f4b3 3434 a5b3 30f6 5bb3 8fcf c52e
00000380: 370e 262f 387a 1733 6016 de32 e0c2 8932
00000390: a04e fa31 f003 ec32 38a3 8f33 1a19 c633
000003a0: 8883 d22d 381e ec2e 58c9 8d31 e6e7 8d30
000003b0: 91be d1ab 42e1 fb2e ac05 c82e 6a25 872b
000003c0: 43b1 422d 0400 0080 0400 0080 44a3 0f36
000003d0: 48ae c935 f93a e235 7e37 0636 685a 0a36
000003e0: fafc 1136 cb63 3d36 0e0a 9f36 6469 8236
000003f0: 6af9 3636 9c6d 2836 3c1d 5d36 b5cd 4c36

exp_avg_sq f4 [64, 3, 9, 9]
8.886698e-11 8.936335e-11 8.978535e-11 8.984427e-11 8.968615e-11 8.934129e-11 8.910508e-11 6.1214886e-17
3.5280597e-18 8.913165e-11 8.972795e-11 9.025845e-11 9.0385255e-11 9.023553e-11 8.983451e-11 8.958118e-11
1.21645404e-17 3.3070538e-18 8.913167e-11 8.9827e-11 9.047673e-11 9.067615e-11 9.058601e-11 9.0173286e-11
8.9922694e-11 4.966969e-18 3.3105342e-18 8.9048345e-11 8.9653306e-11 9.034525e-11 9.0631676e-11 9.066273e-11
9.034909e-11 9.015162e-11 1.7582547e-18 1.93201e-18 8.883913e-11 8.9218834e-11 8.9818125e-11 9.0197974e-11
9.040011e-11 9.024874e-11 9.0154516e-11 2.7401092e-19 2.0443893e-19 8.8365246e-11 8.864345e-11 8.914086e-11
8.949891e-11 8.974105e-11 8.964778e-11 8.958644e-11 2.2391723e-18 6.8366767e-19 8.7950605e-11 8.823838e-11
8.8681534e-11 8.898774e-11 8.9115555e-11 8.8939175e-11 8.880541e-11 4.950388e-18 1.1576381e-18 2.5586788e-11
2.5663666e-11 2.5783873e-11 2.5873699e-11 2.586851e-11 2.5755934e-11 2.5692832e-11 1.1655054e-19 6.7584e-19
4.1961572e-17 3.94298e-17 1.4558816e-17 1.0003193e-17 8.280981e-18 3.292783e-18 2.3692792e-17 1.3244971e-32
8.234713e-33 5.913831e-11 5.95263e-11 5.9849826e-11 5.989168e-11 5.977759e-11 5.950725e-11 5.938319e-11
6.182983e-17 7.747531e-18 5.93339e-11 5.981856e-11 6.026235e-11 6.0386196e-11 6.027734e-11 5.9933586e-11
5.976371e-11 9.870019e-18 1.0134253e-17 5.929908e-11 5.989215e-11 6.0475375e-11 6.067522e-11 6.0599685e-11
6.02152e-11 6.002425e-11 3.2811062e-18 7.408682e-18 5.9174596e-11 5.9713706e-11 6.036193e-11 6.0640624e-11
6.068175e-11 6.039703e-11 6.025596e-11 5.177214e-18 5.165022e-18 5.8944426e-11 5.928433e-11 5.9859194e-11
6.023795e-11 6.046497e-11 6.03529e-11 6.03274e-11 9.995234e-20 8.6033163e-19 5.847218e-11 5.870827e-11
5.918857e-11 5.957149e-11 5.98695e-11 5.983242e-11 5.9845365e-11 3.7446712e-19 5.527598e-20 5.8074486e-11
5.831095e-11 5.873892e-11 5.908811e-11 5.9297275e-11 5.9206966e-11 5.91817e-11 1.0708214e-18 1.1061009e-19
1.6831682e-11 1.6894241e-11 1.7007245e-11 1.7106521e-11 1.713185e-11 1.7062542e-11 1.7048772e-11 1.1669439e-19
3.8636304e-20 9.178865e-17 1.0432734e-16 3.178077e-17 1.0044264e-17 3.714346e-18 3.2515004e-18 5.4614097e-17
8.484663e-33 5.5777567e-33 3.4547226e-11 3.484075e-11 3.5072157e-11 3.510436e-11 3.4984862e-11 3.4771797e-11
3.4726326e-11 3.4854638e-17 1.8104852e-18 3.477983e-11 3.5110765e-11 3.5424913e-11 3.5526852e-11 3.541102e-11
3.513315e-11 3.5051833e-11 8.828438e-19 1.1965022e-18 3.484231e-11 3.5261447e-11 3.5683508e-11 3.583522e-11
3.5729825e-11 3.540813e-11 3.531402e-11 9.3711906e-20 4.608482e-19 3.4800204e-11 3.521784e-11 3.571539e-11
3.5923604e-11 3.5891002e-11 3.5621398e-11 3.5554153e-11 1.0225796e-19 1.1239006e-19 3.4643413e-11 3.4947528e-11
3.540634e-11 3.5704436e-11 3.5802788e-11 3.5643162e-11 3.5640844e-11 1.2630527e-19 3.306455e-20 3.428692e-11
3.4535246e-11 3.49076e-11 3.518679e-11 3.5341608e-11 3.5238423e-11 3.5255333e-11 3.320916e-19 3.5271728e-20
3.400604e-11 3.4263356e-11 3.457687e-11 3.4785376e-11 3.4866415e-11 3.4739364e-11 3.4742997e-11 8.4882617e-19
8.229368e-20 9.842697e-12 9.91019e-12 9.986034e-12 1.0039525e-11 1.003054e-11 9.970358e-12 9.9744735e-12
1.5089223e-19 1.1622279e-19 3.74077e-17 1.1004644e-17 4.532884e-18 5.2460725e-18 1.8910019e-18 8.068227e-19
2.1373085e-17 8.025331e-33 5.5005822e-33 1.271535e-09 1.3869913e-09 1.8069151e-09 1.8356261e-09 1.8384912e-09
1.8337332e-09 1.8237956e-09 1.4203089e-09 1.3296112e-09 1.440321e-09 1.5630143e-09 2.0336344e-09 2.0596669e-09
00000000: aa6b c32e 1883 c42e a970 c52e d491 c52e
00000010: d038 c52e ad76 c42e b3f1 c32e e426 8d24
00000020: 9529 8222 a900 c42e 5850 c52e fd7a c62e
00000030: 60c2 c62e 166e c62e 558c c52e b9fd c42e
00000040: 6b65 6023 7b04 7422 ab00 c42e 1b88 c52e
00000050: dff5 c62e 2266 c72e 6433 c72e 0c4b c62e
00000060: fabd c52e b23f b722 3946 7422 c3d1 c32e
00000070: 5326 c52e dbab c62e 194d c72e 945e c72e
00000080: 04ae c62e da3e c62e 7ebc 0122 a38e 0e22
00000090: fc5b c32e bd31 c42e 1c83 c52e f258 c62e
000000a0: bdca c62e 8675 c62e 7b40 c62e 5cbf a120
000000b0: e05b 7120 3651 c22e d3ed c22e d805 c42e
000000c0: 68cf c42e b857 c52e 3723 c52e af00 c52e
000000d0: c538 2522 78c8 4921 ca67 c12e cb09 c22e
000000e0: 4403 c32e a5af c32e 99f7 c32e 4e94 c32e
000000f0: 0049 c32e 18a3 b622 55d6 aa21 5310 e12d
00000100: 70bd e12d 1fcc e22d 6496 e32d b58a e32d
00000110: 358d e22d 1dff e12d 3d99 0920 0779 4721
00000120: 7b83 4124 7ed6 3524 0848 8623 be86 3823
00000130: d4c1 1823 eaf6 7222 0687 da23 2c8b 890a
00000140: 3f07 2b0a e90b 822e 54e6 822e 759c 832e
00000150: 05b4 832e cb73 832e 9bdb 822e c495 822e
00000160: e491 8e24 aeea 0e23 047a 822e db8a 832e
00000170: b084 842e 68ca 842e 208d 842e 9ccb 832e
00000180: fa6b 832e d911 3623 a8f1 3a23 6a66 822e
00000190: 48b4 832e 9cfc 842e 1d6d 852e 9742 852e
000001a0: 256a 842e a6fe 832e 581a 7222 83aa 0823
000001b0: 5620 822e d44f 832e bfbc 842e a359 852e
000001c0: ca70 852e 81d0 842e 1781 842e 6701 bf22
000001d0: 418e be22 c39e 812e 1c5e 822e bba1 832e
000001e0: f376 842e c1f6 842e aab7 842e 4fa9 842e
000001f0: 7b01 ec1f d2ec 7d21 e994 802e d119 812e
00000200: 3428 822e c4ff 822e 88a7 832e a892 832e
00000210: f299 832e df0b dd20 4884 821f 0f6a 7f2e
00000220: 263a 802e 132b 812e a6ef 812e 6665 822e
00000230: 8f32 822e 5624 822e 7d06 9e21 d995 0220
00000240: 940d 942d 739a 942d e998 952d 7678 962d
00000250: 7fb1 962d 6e15 962d 6cf6 952d b7c4 0920
00000260: 6d74 361f 75a6 d324 fe8f f024 1c90 1224
00000270: b248 3923 0209 8922 1beb 6f22 f2dc 7b24
00000280: 3538 300a e2b0 e709 b8f0 172e 323b 192e
00000290: bd3f 1a2e ff63 1a2e 74dd 192e 90ed 182e
000002a0: 5eba 182e 18bd 2024 1997 0522 9bf6 182e
000002b0: 356b 1a2e e8cc 1b2e ae3f 1c2e 44bd 1b2e
000002c0: 6984 1a2e db28 1a2e e548 8221 9392 b021
000002d0: f43c 192e dc14 1b2e 0ff0 1c2e df9a 1d2e
000002e0: 3524 1d2e 03ba 1b2e 0d50 1b2e 5f45 dd1f
000002f0: b504 0821 8c0d 192e c3e3 1a2e f413 1d2e
00000300: 62fe 1d2e add9 1d2e 21aa 1c2e 6b5e 1c2e
00000310: 2573 f11f d0af 0420 045d 182e 6bb3 192e
00000320: ffb7 1b2e 9f07 1d2e 5b76 1d2e a2c2 1c2e
00000330: 06c0 1c2e 6d1d 1520 9724 1c1f a4cb 162e
00000340: 3be3 172e 7786 192e cec0 1a2e 1d6f 1b2e
00000350: f0fa 1a2e fa0d 1b2e 4408 c420 e790 261f
00000360: 668f 152e 1cb1 162e 1812 182e dafc 182e
00000370: 1858 192e 0cc9 182e 23cd 182e 7e87 7a21
00000380: 7a4f c21f 9127 2d2d 8757 2e2d 19ad 2f2d
00000390: 009e 302d 8975 302d 8066 2f2d 0979 2f2d
000003a0: 6124 3220 2f36 0920 3883 2c24 f6ff 4a23
000003b0: e13b a722 c18b c122 0488 0b22 cd21 6e21
000003c0: c521 c523 fbad 260a 397c e409 29c2 ae30
000003d0: 6ba0 be30 2c57 f830 5a49 fc30 29ae fc30
000003e0: c006 fc30 1aa9 fa30 ad34 c330 89bd b630
000003f0: caf4 c530 add1 d630 13c0 0b31 0b8a 0d31

exp_avg f4 [64]
-6.926576e-07 2.3342714e-06 6e-45 1.6214949e-06 4.6450435e-07 -3.5161318e-06 -5.1350025e-06 -5.1147055e-08
3.297645e-06 2.4749488e-06 -1.0510953e-06 4.272409e-06 6.8176532e-06 2.3686991e-06 4.2424144e-06 3.1071093e-06
9.899382e-06 6e-45 5.8678143e-06 1.5458711e-06 5.722107e-06 2.923885e-06 2.9923405e-07 -1.1493075e-06
3.0309798e-06 1.9744875e-06 -1.2972857e-06 4.4567587e-06 8.558636e-06 -1.4136214e-06 1.2426979e-05 4.7292137e-06
6e-45 7.62215e-07 1.1457435e-06 -2.4621767e-07 1.546809e-06 -9.081883e-07 4.860967e-07 2.2404179e-06
2.808847e-06 -8.9751643e-07 -1.0746903e-06 -1.8138346e-06 3.876769e-06 7.031838e-06 -5.691202e-06 -4.0230084e-06
6e-45 -9.132981e-08 3.2305097e-06 4.709812e-06 5.412233e-06 3.412076e-06 2.8045454e-07 3.895655e-06
-2.9829955e-06 -3.350437e-06 -3.857306e-06 8.652423e-07 1.1803977e-05 2.2615773e-06 -8.038382e-06 6e-45
00000000: 11ef 39b5 7aa6 1c36 0400 0000 24a2 d935
00000010: fe60 f934 aff6 6bb6 564d acb6 c8ac 5bb3
00000020: 1c4d 5d36 4c17 2636 5c13 8db5 b75b 8f36
00000030: 32c3 e436 f1f5 1e36 105a 8e36 bb83 5036
00000040: 8615 2637 0400 0000 24e4 c436 ba7b cf35
00000050: 8600 c036 f637 4436 6aa6 a034 e841 9ab5
00000060: d667 4b36 7081 0436 661e aeb5 448b 9536
00000070: 1097 0f37 a9bb bdb5 787d 5037 a3af 9e36
00000080: 0400 0000 049b 4c35 72c7 9935 e62f 84b4
00000090: f49b cf35 3aca 73b5 507c 0235 165a 1636
000000a0: a07f 3c36 dcec 70b5 143e 90b5 e272 f3b5
000000b0: 3115 8236 07f3 eb36 0ef7 beb6 61fd 86b6
000000c0: 0400 0000 1821 c4b3 bccb 5836 fa08 9e36
000000d0: ba9a b536 05fb 6436 6191 9634 6cb7 8236
000000e0: 792f 48b6 12d8 60b6 026e 81b6 0043 6835
000000f0: b209 4637 9ac5 1736 96dc 06b7 0400 0000

exp_avg_sq f4 [64]
2.1497944e-10 5.4423523e-09 4.0615523e-33 1.893718e-09 1.7911994e-09 2.8739264e-09 7.275871e-09 1.9239634e-11
4.8851742e-08 5.0218603e-09 1.506235e-10 7.4380653e-09 1.3398519e-09 2.0228494e-09 5.6309033e-09 2.0948256e-09
1.7886634e-08 1.20309165e-32 4.6605726e-07 5.989365e-08 1.7842807e-07 6.5473613e-09 4.2063852e-11 1.799085e-08
3.2485927e-09 2.2519512e-08 2.1041815e-09 1.8490152e-07 4.510159e-07 8.528454e-10 9.817319e-08 2.5539302e-09
4.1144117e-33 3.072021e-09 2.337273e-10 4.3955775e-10 5.207979e-09 1.1132664e-09 1.0639733e-08 2.9265e-09
5.4400364e-09 4.4512405e-10 2.7167768e-09 1.5335654e-09 8.43947e-08 3.3628171e-09 9.497778e-09 1.194271e-08
6.205301e-32 1.1192179e-10 4.4181405e-08 4.7205702e-08 2.8024705e-09 3.586134e-09 7.777137e-10 3.7132686e-09
4.9144404e-11 8.27604e-09 7.648226e-10 1.4423523e-10 4.41647e-08 1.2681899e-10 7.120351e-08 1.419909e-39
00000000: 555f 6c2f 70ff ba31 d5b5 a809 a422 0231
00000010: 3a2e f630 a67e 4531 3dff f931 ce3b a92d
00000020: 0fd1 5133 c08c ac31 bf9c 252f ea91 ff31
00000030: d925 b830 5802 0b31 f379 c131 90f4 0f31
00000040: 20a5 9932 53df 790a 6c36 fa34 e29e 8033
00000050: ef95 3f34 33f7 e031 b0ff 382e 4c8a 9a32
00000060: d93d 5f31 ee70 c132 2799 1031 5889 4634
00000070: 2723 f234 a96d 6a30 48d3 d233 3781 2f31
00000080: eee7 aa09 911b 5331 317e 802f 41a6 f12f
00000090: def1 b231 9401 9930 0aca 3632 881b 4931
000000a0: 11eb ba31 a4b5 f42f 0bb2 3a31 89c5 d230
000000b0: 7a3c b533 4e17 6731 ab2b 2332 982c 4d32
000000c0: 4d19 a10b 5e1e f62e f8c1 3d33 38bf 4a33
000000d0: 9595 4031 f06f 7631 bdc6 5530 832c 7f31
000000e0: ae23 582e 692e 0e32 9b3b 5230 9c96 1e2f
000000f0: 9aaf 3d33 5f70 0b2f 8be8 9833 2176 0f00

exp_avg f4 [32, 64, 1, 1]
5.479993e-09 -6.864876e-07 0.0 1.06251e-07 -1.3452745e-07 -5.299356e-07 -1.1877489e-06 -9.853907e-09
-5.091345e-09 -1.6732922e-06 4.9776343e-09 2.0393152e-08 4.742346e-07 -1.3071687e-08 -9.068575e-07 5.250697e-08
-1.0927644e-06 0.0 -3.877771e-06 -4.0363224e-07 -1.4894877e-06 -1.0003549e-06 1.7720321e-08 -8.0665893e-07
-7.0806624e-07 -2.955034e-07 -4.54889e-07 -3.7088887e-06 -2.9086964e-06 8.0819916e-07 -1.3840287e-06 -5.061293e-07
0.0 -1.5737128e-07 3.612917e-09 -1.010568e-08 -5.997373e-07 4.041898e-09 -2.9617162e-08 -4.1498475e-07
-9.950239e-07 -9.90853e-08 -7.9678676e-07 -6.24617e-07 -1.6539133e-06 -1.7440102e-07 -6.228009e-07 -3.091145e-07
0.0 2.7690714e-07 -1.8265941e-06 -2.1345459e-06 1.8913386e-07 -1.2993976e-06 -2.2408531e-07 -1.202732e-06
4.308871e-08 4.4660378e-09 -8.66018e-09 2.326019e-07 -8.646785e-07 2.2576364e-07 -7.279732e-07 0.0
-2.0243608e-07 1.04117025e-05 -6e-45 3.7161276e-06 2.420849e-06 1.0134985e-05 -1.7999209e-06 7.664795e-08
2.1062093e-05 2.8640006e-06 -1.6100203e-07 3.6529725e-06 -1.1812756e-07 1.8196536e-06 8.603551e-06 7.652397e-06
-2.159407e-06 -6e-45 4.7756737e-05 2.1655862e-05 5.5829878e-05 4.350848e-06 -1.5288761e-07 -2.4188284e-07
4.3300633e-06 -7.050585e-07 2.4787805e-06 3.4020937e-05 6.033563e-05 -2.3807943e-06 3.0194642e-05 4.08055e-06
6e-45 1.5167232e-05 8.632583e-08 4.5136233e-07 1.9181214e-05 -4.607817e-08 7.8034816e-07 1.28234515e-05
1.1813248e-05 -2.7015119e-08 1.2280303e-05 1.013343e-05 3.1123447e-05 1.1240348e-05 2.5944648e-06 4.6685727e-07
-6e-45 3.7056753e-07 -3.0098545e-06 2.8385766e-05 7.0535916e-06 -1.3874269e-06 8.1564995e-06 1.5227099e-05
1.8595537e-07 4.567226e-06 6.409542e-06 8.098336e-07 4.774195e-06 -8.231436e-07 2.8041875e-05 -6e-45
1.4438735e-09 -7.630635e-08 6e-45 1.9428985e-08 4.864299e-08 -1.932749e-07 -1.3153552e-08 -7.675662e-09
5.0108554e-08 3.7859753e-08 7.4769346e-10 -2.5600766e-08 1.6359274e-07 1.3519239e-08 9.141775e-08 1.8332271e-07
8.075369e-07 6e-45 3.4710945e-07 8.0586915e-08 -1.29712e-07 -1.8785514e-08 -3.297985e-09 7.3892586e-08
-7.5059944e-08 2.4911984e-07 1.6368841e-07 6.097192e-07 4.0560963e-07 -2.3569862e-07 3.4667153e-07 1.1623926e-07
6e-45 -1.76924e-07 6.605134e-08 -1.3528398e-07 -2.6545706e-08 9.8293405e-08 -9.348449e-09 2.7149497e-08
-9.113484e-08 3.2597924e-09 -1.8931382e-07 -6.667462e-08 -1.0887675e-07 -7.564133e-07 -2.831419e-08 3.2934278e-07
6e-45 -2.8502495e-08 1.2766969e-06 1.9879255e-07 -1.030903e-07 1.639541e-07 3.922287e-08 -1.7458397e-08
-3.641926e-07 4.151984e-08 -1.0618362e-07 1.8261922e-08 4.5204125e-08 -1.6122684e-08 -5.0938525e-07 6e-45
-1.8293544e-07 -6.1969166e-07 -6e-45 -1.4400155e-07 1.8039932e-06 -1.712221e-06 -7.847394e-06 -1.9259971e-08
-3.1884683e-06 -3.781477e-08 -2.7165817e-07 2.8641804e-07 6.041378e-07 1.0213197e-07 -2.5780332e-06 -2.6964528e-06
-6.9136377e-06 6e-45 -4.034685e-06 -4.153785e-06 -9.62703e-06 5.3656413e-07 4.020089e-09 2.735226e-07
9.0854803e-07 9.421499e-07 -2.3870778e-06 -1.8143112e-06 -5.8561045e-06 -3.0593577e-07 -6.5590425e-06 -1.8458151e-07
6e-45 -1.1574971e-06 1.19114176e-07 2.7530047e-07 -2.2852948e-06 3.0676057e-07 1.8243769e-06 2.0350558e-06
-3.9484808e-06 3.8090624e-07 -6.7342455e-07 -2.6480068e-06 -2.448614e-06 -1.5234671e-07 -3.3965334e-06 3.401379e-06
-6e-45 -3.9821057e-07 -6.221214e-06 -1.9999175e-06 -7.292796e-07 -3.67307e-06 6.6461934e-07 -6.6253494e-07
-8.548659e-08 2.69038e-07 1.7132327e-06 -5.78686e-07 6.3558673e-07 2.7545664e-07 -3.552707e-06 -6e-45
00000000: 874a bc31 1247 38b5 0000 0000 1b2c e433
00000010: a072 10b4 e640 0eb5 be6a 9fb5 f149 29b2
00000020: f2ef aeb1 e295 e0b5 bc07 ab31 042d af32
00000030: 4f9a fe34 e391 60b2 c66e 73b5 0684 6133
00000040: 19ab 92b5 0000 0000 cd1d 82b6 cbb2 d8b4
00000050: 68ea c7b5 ef43 86b5 6637 9832 2e89 58b5
00000060: f111 3eb5 aea5 9eb4 7837 f4b4 39e6 78b6
00000070: 0633 43b6 06f3 5835 ddc2 b9b5 f1dc 07b5
00000080: 0000 0000 e3f9 28b4 1c47 7831 409d 2db2
00000090: a2fd 20b5 e9e0 8a31 d468 feb2 12cb deb4
000000a0: c38c 85b5 b8c8 d4b3 c5e2 55b5 5aab 27b5
000000b0: 07fc ddb5 fd42 3bb4 8d2e 27b5 60f4 a5b4
000000c0: 0000 0000 d4a9 9434 4c29 f5b5 383f 0fb6
000000d0: b814 4b34 f666 aeb5 1a9c 70b4 8f6d a1b5
000000e0: 8a10 3933 af73 9931 e0c7 14b2 20c1 7934
000000f0: 411c 68b5 7069 7234 f069 43b5 0000 0000
00000100: 355d 59b4 ecad 2e37 0400 0080 9662 7936
00000110: de75 2236 6e09 2a37 d094 f1b5 a899 a433
00000120: 80ae b037 2833 4036 e7df 2cb4 9725 7536
00000130: 50ad fdb3 d23a f435 f857 1037 cb62 0037
00000140: 54ea 10b6 0400 0080 684e 4838 9ca9 b537
00000150: e02a 6a38 80fd 9136 6d29 24b4 20dc 81b4
00000160: f64a 9136 4043 3db5 2059 2636 b4b1 0e38
00000170: e410 7d38 bcc5 1fb6 804a fd37 a8eb 8836
00000180: 0400 0000 c476 7e37 2062 b933 c452 f234
00000190: 58e7 a037 7ce7 45b3 1e79 5135 4e24 5737
000001a0: 8431 4637 e00e e8b2 8007 4e37 c002 2a37
000001b0: 8c8a 0238 ed94 3c37 911c 2e36 60a4 fa34
000001c0: 0400 0080 6af2 c634 e8fc 49b6 f81d ee37
000001d0: e4ad ec36 a037 bab5 e6d7 0837 e477 7f37
000001e0: 06ab 4734 2c40 9936 8c11 d736 5763 5935
000001f0: 0632 a036 fff5 5cb5 783b eb37 0400 0080
00000200: c871 c630 dcdd a3b3 0400 0000 cae4 a632
00000210: 88eb 5033 0087 4fb4 eff9 61b2 ebdd 03b2
00000220: f036 5733 3d9b 2233 4086 4d30 aee8 dbb2
00000230: 08a8 2f34 3e42 6832 7151 c433 5dd7 4434
00000240: 83c5 5835 0400 0000 5c5a ba34 200f ad33
00000250: f746 0bb4 c85d a1b2 c4a2 62b1 e1ae 9e33
00000260: a430 a1b3 c5be 8534 54c2 2f34 96ab 2335
00000270: 90c2 d934 5814 7db4 2c1e ba34 369f f933
00000280: 0400 0000 80f8 3db4 1cd8 8d33 9442 11b4
00000290: a006 e4b2 5f15 d333 ea9a 20b2 6036 e932
000002a0: e8b5 c3b3 e002 6031 3046 4bb4 c32e 8fb3
000002b0: a0cf e9b3 540c 4bb5 9037 f3b2 87d0 b034
000002c0: 0400 0000 a6d5 f4b2 f95a ab35 ae73 5534
000002d0: 7e62 ddb3 5c0b 3034 0076 2833 6cf7 95b2
000002e0: 4086 c3b4 8c53 3233 1007 e4b3 64de 9c32
000002f0: 7626 4233 287e 8ab2 b0bc 08b5 0400 0000
00000300: e96c 44b4 e358 26b5 0400 0080 d89e 1ab4
00000310: bc20 f235 77cf e5b5 4da8 03b7 2071 a5b2
00000320: 78f9 55b6 c869 22b3 6ad8 91b4 ffc4 9934
00000330: 092c 2235 a553 db33 4602 2db6 b5f4 34b6
00000340: b2fb e7b6 0400 0000 ae61 87b6 be60 8bb6
00000350: c783 21b7 6808 1035 1421 8a31 a9d8 9234
00000360: f2e2 7335 0ce8 7c35 af31 20b6 4283 f3b5
00000370: 8e7f c4b6 7e3f a4b4 bf15 dcb6 6131 46b4
00000380: 0400 0000 4c5b 9bb5 b6cb ff33 02cd 9334
00000390: 115d 19b6 dab0 a434 1ddd f435 fe91 0836
000003a0: 317d 84b6 5b7f cc34 62c5 34b5 69b4 31b6
000003b0: de52 24b6 bf94 23b4 00f0 63b6 3f43 6436
000003c0: 0400 0080 a5c9 d5b4 d2bf d0b6 5236 06b6
000003d0: b6c3 43b5 dd7e 76b6 4b68 3235 0ed9 31b5
000003e0: c094 b7b3 4d70 9034 3af2 e535 0057 1bb5
000003f0: 309d 2a35 79e2 9334 0b6b 6eb6 0400 0080
