outputs/model.pth (torch, 82247 bytes, 6 tensors)

conv1.weight f4 [64, 3, 9, 9]
000000 d7 e4 12 3d 5f da 44 3d 6f ca 23 bd 0d 93 25 bd
       0.03586277 0.048059817 -0.039987978 -0.04042344
000010 1a 37 4d 3d fe 5e fc 3b 77 f0 a8 bc 94 52 cf 3d
       0.050101377 0.0077017536 -0.020622475 0.101231724
000020 06 2f c6 bf ad b4 b3 bd 89 85 57 3d 9d 57 2d bd
       -1.54831 -0.087746955 0.052617583 -0.042319883
000030 f8 48 b8 3c c4 d3 8d bc 43 0f b1 bc 73 c7 8a bc
       0.022495732 -0.017312892 -0.021613723 -0.016940808
000040 77 af 3d bf 1a 87 9c bf 87 6b e6 bb 5f fd 29 3c
       -0.74095863 -1.222873 -0.007031861 0.01037535
000050 b8 cb a2 bb 90 02 53 bd ba 8e 48 bd a1 b5 39 bd
       -0.004968133 -0.051516116 -0.04896424 -0.04533923
000060 40 90 ad 3a 9a 63 50 bf 2d 45 8c bf 13 13 8f 3c
       0.0013241842 -0.8140198 -1.0958611 0.01746515
000070 d8 cd 5f 3d d0 d5 59 bd b7 a9 75 3d 1c 60 aa 3d
       0.054639667 -0.053182423 0.059976306 0.08319113
000080 90 b1 8d 3d 91 20 af 3d b3 0f 2a bf cf 9b 92 bf
       0.06918633 0.085511334 -0.66430205 -1.1453799
000090 06 f7 3a bd 39 3f 58 3d 41 af 63 bc 88 53 b7 3c
       -0.045645736 0.05279467 -0.013896764 0.022378698
0000a0 dd 1b 5d 3c a2 54 d1 3c e0 8b 10 3d c7 44 11 bf
       0.013495413 0.025553051 0.035289645 -0.5674557
0000b0 3b 34 93 be 42 3f 03 bd ee 43 cb bc 0f eb 9d 3c
       -0.28750786 -0.03204275 -0.024812665 0.019277124
0000c0 a5 45 0d bd 94 fe ec bd 8a 68 c0 bd a2 87 53 3d
       -0.034490246 -0.115719944 -0.09394939 0.05164302
0000d0 f5 1b 98 bf 05 28 29 be ab 67 a0 3d b6 43 d6 bb
       -1.1883532 -0.16519172 0.07832273 -0.0065388335
0000e0 a7 65 eb bc 8b 4c c2 bd 17 e1 00 be b6 c5 8e 3c
       -0.028734995 -0.09487256 -0.12585865 0.01742826
0000f0 7d 35 98 3e 43 13 a6 bf 4c b8 9d be 27 1c d9 bc
       0.29728308 -1.2974628 -0.3080467 -0.026502682
000100 d8 af 0a 3d 3e 23 45 3d f0 55 81 3e fe 5b 18 3e
       0.033859104 0.048129313 0.25260878 0.14878842
000110 9b 7d 6a bb ad 10 a0 bd b8 18 9c bd 07 d0 a0 be
       -0.0035780433 -0.07815681 -0.07621902 -0.31408712
000120 76 c7 78 c0 ba 83 85 c0 d7 df 36 c0 bf 74 f8 bf
       -3.8871741 -4.17233 -2.857412 -1.9410628
000130 da ce cf bf 54 f1 09 c0 12 07 6a c0 77 5b 36 3d
       -1.6235001 -2.1553545 -3.6566815 0.04452082
000140 ae b9 3b bd 1c 90 4d 3d c5 60 bf bc 50 b2 9c bc
       -0.045831375 0.05018626 -0.023361573 -0.019127995
000150 24 6e 90 3c d4 7d 4a 3c 2a 36 6d 3c 05 c8 33 3d
       0.017630644 0.012359101 0.014478246 0.043891925
000160 df 62 82 be 69 0a e2 bf 77 5d 34 bd 0f 10 48 3d
       -0.25466058 -1.7659427 -0.044034448 0.04884344
000170 d9 71 f1 3b a2 18 fd 3c ca bd 8b bc e1 9e 2b 3d
       0.007368308 0.030895535 -0.017058272 0.041899566
000180 22 24 4a bc 4a f7 52 bf 25 5c d9 bf b5 98 a7 3c
       -0.012337716 -0.82408583 -1.6981245 0.020458559
000190 6f 96 b8 bc 32 67 f4 bc c1 dd 0d be 7f 13 0a bd
       -0.02253267 -0.029834364 -0.13854124 -0.03371
0001a0 ad 51 02 bd 6c 1b 0f bd 64 6c 8a bf d7 da c2 bf
       -0.031816173 -0.03493826 -1.0814328 -1.5223035
0001b0 bf 26 b7 ba 04 b5 61 3d 13 04 5b bc 9f a5 64 3d
       -0.0013973339 0.05510427 -0.013367671 0.05582201
0001c0 01 ef 60 b9 29 69 f7 3c 2a e9 32 bd 46 0f ae bf
       -0.0002145134 0.030201511 -0.043679394 -1.3598411
0001d0 88 16 db bf 45 91 9a 39 9c 3f d5 ba c7 67 16 3d
       -1.7116251 0.00029481403 -0.0016269567 0.036720064
0001e0 d9 26 f8 bc 05 51 ae 3d 69 9d b9 39 67 4a 69 3d
       -0.030291962 0.08511547 0.0003540323 0.05695572
0001f0 a4 bf 66 bf 68 d2 79 bf 89 87 81 bd 04 9b 06 bc
       -0.9013617 -0.9758668 -0.063246794 -0.00821567
000200 ad e2 3a bd 87 0b 91 bc 6d a5 68 bd c2 f2 bc 3c
       -0.04562633 -0.017705692 -0.056798387 0.023064975
000210 57 8b 9b 3e 1c 8a be bf 3b 99 9a be ba 86 ab 3d
       0.30379745 -1.4885898 -0.3019503 0.083753064
000220 a0 bb 58 bc 4d 0d ec 3c 0e 82 08 bd 78 4d a4 3c
       -0.013228327 0.028814936 -0.033327155 0.020056471
000230 27 e3 59 3e a7 91 14 3f db f1 d0 bf 54 95 c6 be
       0.21278058 0.5803475 -1.6323808 -0.38785803
000240 58 de 84 bd 66 83 87 bc f2 ef 5d 3d a4 7e 99 3d
       -0.06487721 -0.016542148 0.054183908 0.07494858
000250 4d 3f 53 bc 62 d7 96 be 7d 1b 03 bf 9c fe ba bc
       -0.01289351 -0.294612 -0.5121382 -0.022826485
000260 c3 1d 40 bc 4c 2b 9c c0 22 9e 9b c0 db de 68 c0
       -0.011725846 -4.8802853 -4.8630533 -3.638602
000270 de 81 03 c0 d6 ae b6 bf 5d 01 14 c0 57 83 82 c0
       -2.0548015 -1.4272106 -2.3125832 -4.0785327
000280 9d 91 30 bd 35 f4 ba bc 6f b8 81 bd b1 3f 00 bd
       -0.043107618 -0.022821525 -0.06334006 -0.03131074
000290 2c ce 97 3c 98 79 b1 ba c3 b6 67 bc 36 10 53 bd
       0.018530928 -0.0013540266 -0.014142695 -0.05152913
0002a0 42 4d b0 bd e5 80 8a 3e 34 91 af bf 21 fe 3b 3d
       -0.08608486 0.27051464 -1.3716187 0.045896653
0002b0 52 02 a7 3d cc 40 e6 bc b5 d7 b0 3d b2 79 61 3d
       0.081547394 -0.02810707 0.08634893 0.0550477
0002c0 4e cc ce 3d 48 90 fa 3d b8 68 10 be e7 62 9f bf
       0.10097562 0.12234551 -0.14102447 -1.2452058
0002d0 c2 58 19 bd c4 8e 09 3d 67 4e 25 bd 36 66 cd bd
       -0.03743816 0.033583418 -0.040357973 -0.10029261
0002e0 b0 d0 bf bc 33 f7 82 bd 19 a0 16 bd 36 c1 50 be
       -0.02341494 -0.06394806 -0.036773775 -0.20386204
0002f0 87 fd 56 bf 2f 65 0c bd 54 9a 17 3d ac 82 44 bd
       -0.839806 -0.034276184 0.037012413 -0.04797618
000300 6a d2 41 3d b4 d7 75 3d c7 9e d9 bc f6 e8 db bd
       0.047319807 0.060020164 -0.026564969 -0.10737793
000310 50 94 be be 21 c2 34 bf 60 10 3a bb 70 0b 88 3d
       -0.37222528 -0.7060872 -0.0028391108 0.066428065
000320 5f fe b5 bb b0 4c 8d 3b f6 c5 17 bc bc 8a 22 bb
       -0.005554005 0.0043121204 -0.009263506 -0.002480193
000330 70 db df 3c 5d 8b 8c bf 1c 86 08 bf 16 73 f5 bc
       0.027326316 -1.098003 -0.53329635 -0.029962104
000340 97 ae 93 3d 90 eb 09 3d fa 71 b0 bc df a7 83 bd
       0.07211035 0.033671916 -0.021538723 -0.06428503
000350 73 bf 32 bb ac 59 92 3e 0e 8f ce bf 4d ca 9d be
       -0.0027274757 0.2858404 -1.6137407 -0.30818406
000360 47 33 5e 3c 77 01 67 3c 45 b5 37 bc 29 4e 30 bd
       0.01356203 0.01409947 -0.011212652 -0.04304329
000370 09 62 84 3d 7e da b4 3e 22 82 44 3f 25 34 ea bf
       0.06464011 0.35322946 0.76761067 -1.8297163
000380 d8 41 f6 be 6f 90 58 bd f4 92 b2 bd 60 99 b7 3b
       -0.4809711 -0.052872118 -0.08719435 0.0056030005
000390 31 2c 58 ba 45 b9 ae bd 6b 69 07 bf 5f ed 4c bf
       -0.0008246331 -0.08531431 -0.5289523 -0.800497
0003a0 f8 f2 7e bd b4 6d a9 bd 91 23 53 c0 14 49 1e c0
       -0.06224343 -0.08272877 -3.2990458 -2.4732103
0003b0 ab 66 b4 bf f7 59 c2 bf 8f 0f a4 bf 20 cf a4 bf
       -1.4093832 -1.5183705 -1.2817248 -1.287571
0003c0 91 1c 31 c0 7a c2 ff 3c 56 44 6a bd 91 f1 a1 3d
       -2.7673686 0.031220663 -0.057194076 0.07907403
0003d0 f3 73 ba bd b8 cd 0a 3d e2 71 dc 3d da a6 b8 bd
       -0.09104147 0.033887595 0.10763909 -0.090161994
0003e0 c9 99 86 bd e6 68 e5 3c d1 d8 d5 3c f2 2e 46 bc
       -0.06572301 0.028004121 0.026104363 -0.012096154
0003f0 73 90 40 bd c5 12 98 bc 95 c8 ad ba 01 f4 88 3b
       -0.047012758 -0.018563638 -0.0013258631 0.004179478

conv1.bias f4 [64]
000000 00 56 97 bc 39 32 48 3d 77 ea 56 bd f4 e4 2d be
       -0.018473625 0.04887602 -0.052469697 -0.1698187
000010 ac 81 a9 bd 12 4f 03 3e 67 06 84 3c b8 6a 6a 3d
       -0.08276686 0.12823132 0.016116334 0.05723068
000020 90 4f 7a 3d 9e 3c ad 3d 2d f9 d0 bc be ce 1e 3d
       0.061111033 0.084588274 -0.025509441 0.038771383
000030 c8 d3 c9 bd c2 96 62 3b b1 f7 4c 3e 05 aa 31 3e
       -0.09854847 0.0034574722 0.20016362 0.17350014
000040 d9 ea 01 3d 2a 3e 81 bc 9e d3 60 3d b5 f9 91 3d
       0.03171811 -0.015776712 0.054889314 0.07127706
000050 c2 9f 95 3d db f6 23 3d b7 9b 30 ba 53 cd 84 bc
       0.07305862 0.04003034 -0.00067370705 -0.016211187
000060 33 37 07 3e f7 5b 3b 3d 21 38 f2 3d 92 e7 ba 3d
       0.1320465 0.045742 0.11827112 0.091262
000070 23 ad 93 3d 4f 10 1d be 1e d3 c3 3d 30 0b 21 3d
       0.072107576 -0.15338252 0.09561752 0.03931731
000080 01 a8 04 bd 41 7a 0f 3c 02 ae 1a b9 b7 e0 13 be
       -0.032386784 0.008757175 -0.00014751407 -0.1444119
000090 89 2a 95 3d 64 41 35 3a 04 19 1e 3c 32 65 1d 3e
       0.072835036 0.0006914346 0.009649519 0.15370634
0000a0 70 bd 2c 3e b6 f5 af 3c b8 8e 29 3d 9f 23 2b 3d
       0.1686914 0.021479469 0.041395873 0.041782018
0000b0 91 b0 d1 3d 05 9b e0 3d 0a 86 f2 3c ca 9f 22 bc
       0.102387555 0.10967068 0.02960493 -0.009925792
0000c0 94 48 7c bd b9 21 8c bd 03 2a 5c 3d 06 b4 63 3d
       -0.061592653 -0.068423696 0.053751003 0.055591606
0000d0 1c 5c c4 3d 59 28 17 bd 77 cf db 3d 8b 80 0d 3e
       0.09587881 -0.036903713 0.1073293 0.13818567
0000e0 0d 8f 26 bd 4d 7c 3f 3d e9 c5 0a be 2c b9 6c bd
       -0.040663768 0.0467494 -0.13552059 -0.05779378
0000f0 a8 2a 84 3c 74 96 96 be cb a5 70 3e 93 80 88 bd
       0.016133621 -0.29411662 0.23500745 -0.066651486

conv2.weight f4 [32, 64, 1, 1]
000000 9e a1 36 be ea 95 e3 3b 16 87 ca 3d bd 0a 4d be
       -0.1783509 0.0069453614 0.09889047 -0.20023628
000010 3c ee 37 3e 22 43 25 bc 10 c7 3d 3c e9 92 3d be
       0.17961973 -0.0100868065 0.011583105 -0.18513073
000020 fa 59 ec bd ae a7 9b bc 41 55 8f be cb b5 5d be
       -0.11540599 -0.019000854 -0.2799473 -0.2165138
000030 a3 55 d7 bc ac 84 12 bd ef 06 fe 3d 36 21 f6 bc
       -0.026285952 -0.035771057 0.12403666 -0.030045133
000040 e8 d2 71 bc c0 f5 c7 bc 00 75 42 3d 70 7d 90 3d
       -0.014759757 -0.024409175 0.04747486 0.07055175
000050 8f 72 57 bd 35 7e 33 3e 62 ba 15 bd 45 ac 97 3d
       -0.052599486 0.17528613 -0.0365547 0.07405905
000060 f9 02 2e bd ce aa 1e 3e 3e 02 b0 bd 7d 3e 01 bd
       -0.042483304 0.15494844 -0.08594178 -0.031553734
000070 d7 2b 4e bd 52 1e 8a 3e 89 96 9e 3c 64 d8 ee bc
       -0.050334778 0.26976258 0.01935889 -0.029155917
000080 40 e2 c5 bb c6 36 1a 3e c6 1d 63 bd 9e 84 5f 3c
       -0.006038934 0.15059957 -0.055448316 0.013642458
000090 eb c8 11 bd 3f f2 a4 3c 5e 07 0e bd a6 71 3e 3d
       -0.035592 0.020135043 -0.034674995 0.046495102
0000a0 ab 77 18 bd ec ee f3 bb 1c a8 16 3d b8 a5 32 3d
       -0.0372235 -0.007444253 0.036781415 0.043615073
0000b0 a8 a9 15 3d a5 06 ab 3d 78 f0 1e 3e 07 14 ae be
       0.03653875 0.08350877 0.15521419 -0.33999655
0000c0 a0 d7 63 3d a3 bc 03 3e a1 6f 7a 3b 89 54 d7 ba
       0.055625558 0.12864928 0.0038213509 -0.0016428392
0000d0 15 15 1d bd b5 ad 8a 3d 0e f2 a0 bd da 0e 21 bd
       -0.038350184 0.06771413 -0.07858668 -0.039320804
0000e0 3b 3b 86 3d 15 1c 87 be 85 a4 a6 be d9 e9 8d 3c
       0.06554266 -0.26388612 -0.32547393 0.017323421
0000f0 de 0f 6c bd 6f 23 30 be fb 78 36 3b 78 6b c6 3d
       -0.05763232 -0.17201017 0.0027843106 0.09688467
000100 69 78 2e 3f 6a 45 42 bd 00 b8 c3 bd 04 ed 87 bb
       0.6815248 -0.04742948 -0.095565796 -0.0041481275
000110 d0 1e a7 3d 8e 29 79 3d 4d 0d 79 3d e8 06 e2 be
       0.08160174 0.060830645 0.0608037 -0.44145894
000120 9c 5d fa 3d 5e 70 17 3e d5 d3 ee bc e7 f3 43 3e
       0.12224886 0.14788958 -0.029153744 0.1913601
000130 25 f7 bd 3d 7c 73 36 be dc 3a ed bd 56 7a 5b 3d
       0.09275655 -0.17817491 -0.11583492 0.053583466
000140 6c 0c 16 3e 5b 0d 69 bc 42 8a c2 3d 52 05 48 3d
       0.14653176 -0.014224376 0.09499027 0.0488332
000150 18 ff 84 bc 31 6b 60 bd 97 d5 58 be ce 90 7a 3e
       -0.01623492 -0.054789726 -0.21175228 0.24469301
000160 91 de 07 be 69 95 02 be e9 9e 29 3c 8b 22 15 3d
       -0.13268496 -0.12752308 0.010352829 0.036409896
000170 19 b9 73 3c 46 57 fb 3c f5 d2 8b 3d c1 68 d2 bd
       0.014875674 0.030681264 0.06827346 -0.102738865
000180 51 78 eb 3d 6c 51 e1 bc 2b 28 9c 3e d8 c0 b4 bc
       0.11497558 -0.027504645 0.30499396 -0.022064611
000190 33 21 50 bb fe da 97 3e c4 ed 89 3e aa 8e 2b 3d
       -0.003175807 0.29659265 0.26939213 0.041884102
0001a0 e8 c3 82 bd 0c 5b 8d 3b c0 60 b7 3d 0a 59 47 bd
       -0.063850224 0.004313832 0.089540005 -0.0486689
0001b0 5d 09 98 bd a8 b6 a0 bd cf 24 97 3e d5 28 a7 bd
       -0.07423661 -0.07847339 0.2952027 -0.08162085
0001c0 9f 4c 72 bd 37 83 76 bd e8 a7 8c 3e 66 65 8b bc
       -0.059155103 -0.06018373 0.27471852 -0.017016124
0001d0 b1 81 8b bc 62 e5 96 bd 2c 80 9a 3d 40 ef 99 bd
       -0.017029615 -0.0736797 0.07543978 -0.075163364
0001e0 b6 6c f4 bc 4f 3f ec bd 58 fd 03 3d 48 61 5b 3b
       -0.029836994 -0.11535513 0.03222403 0.0033474732
0001f0 53 a6 28 3e 78 bc 36 bd a1 9e 9c 3b 3e 95 d3 3d
       0.16469698 -0.04461333 0.004779652 0.103312
000200 bc 14 01 be 67 d5 51 bd d3 2f 9e bc ac a7 9c be
       -0.12605566 -0.051228907 -0.019309914 -0.30596673
000210 2c db 47 be 13 ea 9c 3d 2a b0 2e be 1b 98 f0 3c
       -0.19517201 0.076618336 -0.17059389 0.029369405
000220 a1 49 7d be 9f fd 44 be 6e d3 ba 3d a3 83 34 3e
       -0.24735118 -0.19237374 0.09122358 0.1762834
000230 cf 27 72 3d 4f 0c c2 bd 5d 24 b9 bd 90 70 16 be
       0.059119996 -0.09475004 -0.09040139 -0.14691377
000240 e9 0c 82 be f0 fd 4a bd 45 4f 8a 3c c8 cd 0e be
       -0.25400475 -0.04955858 0.016883502 -0.13945687
000250 7a bc e2 3c fe 9b ef 3c 0d bf 74 3d 70 5f 1f 3e
       0.027677763 0.029249188 0.059752513 0.1556375
000260 91 6d a7 3d 28 34 e1 3d 9f 57 1f be da c6 37 be
       0.08175195 0.10996276 -0.15560769 -0.1794695
000270 f9 86 11 3e 14 5d 93 3d 9f 8a be b8 91 41 9e 3d
       0.14211644 0.071954876 -9.085726e-05 0.077273495
000280 c9 98 36 3d 99 6f 02 be a0 10 8d 3e 4f 05 f2 3d
       0.0445793 -0.12737884 0.27551746 0.11817419
000290 aa ee a0 3d 1e 2a 15 3d 9e f3 96 3e 3c bb 36 be
       0.078580216 0.03641712 0.2948274 -0.17844862
0002a0 73 bc 43 be 3c 52 b1 bd 49 2d d1 bc 95 76 65 be
       -0.19114856 -0.08658263 -0.025534289 -0.22408517
0002b0 a5 46 ea bc 4b ee b2 bd 9a e7 c8 3d a0 21 c6 3d
       -0.028598139 -0.08736857 0.098097995 0.09674382
0002c0 cc 22 e6 bc 06 88 92 be f1 3a 83 3e 4d 01 50 be
       -0.028092764 -0.28619403 0.25630906 -0.20312996
0002d0 16 a3 12 3e f0 44 82 3e 27 88 d7 3b 27 54 84 3d
       0.14320025 0.2544322 0.00657751 0.06461363
0002e0 ef 4e a4 bd d7 b9 af bd 3f e1 94 3d db fb 60 3e
       -0.08022868 -0.08580368 0.07269525 0.21971075
0002f0 f1 95 a0 be 3f cb ea ba b9 c0 6d 3d 23 47 ae bd
       -0.31364396 -0.0017913355 0.058045123 -0.08509662
000300 18 a8 75 3f fb 3f 14 3d 73 43 8d bd 9f 3f 88 3d
       0.95959616 0.03619383 -0.068976305 0.0665276
000310 6e c3 14 3c e1 f9 ae 3d c2 7e d3 3e 5e 83 80 be
       0.009079797 0.08543754 0.41307646 -0.25100225
000320 e3 3e 52 bc 97 ec ed 3b 91 dd d8 be 78 0e 43 bd
       -0.012832376 0.0072608697 -0.42356542 -0.04762122
000330 e4 90 75 3c 47 61 b5 bf d5 1d f7 bd d6 cb bf 3d
       0.014988158 -1.4170312 -0.12066237 0.093650505
000340 50 8a e9 3c 42 5c 82 3d dc 7c 77 3c 85 2c e0 3c
       0.028508335 0.06365253 0.015105452 0.027364979
000350 ce ff ff bd 51 d4 90 be db bd 00 c0 63 86 30 3d
       -0.12499963 -0.28286985 -2.0115879 0.04309691
000360 91 e5 28 3a 66 4c 90 3d 50 77 e7 b6 ff 54 0b bb
       0.00064428995 0.07045822 -6.8982263e-06 -0.0021260378
000370 72 b8 02 3e 94 5a 89 bc f7 b2 23 be 9a ef ce bd
       0.12765673 -0.016766824 -0.15986238 -0.10104294
000380 a4 bd 03 3e 9a f2 65 bc 32 04 01 3f 65 c5 13 bd
       0.12865311 -0.0140348915 0.50397027 -0.036076922
000390 9c 4b 03 be 9c 16 1d 3f d6 71 d6 3d c2 91 09 bd
       -0.12821811 0.61362624 0.10470931 -0.03358627
0003a0 c6 b7 44 bc 94 d3 c8 3d c9 7f 4c bd 52 ab 04 3d
       -0.012006706 0.0980598 -0.049926553 0.032389946
0003b0 be 74 29 bd a5 a6 6e 3c 94 ba e5 bd ce 98 64 be
       -0.0413711 0.014566098 -0.112172276 -0.22323915
0003c0 41 07 ad bd ab bc 83 3b b4 ca f2 3e d4 26 d8 3c
       -0.08448649 0.0040202937 0.47420275 0.026385702
0003d0 b2 8a f3 3d a4 30 68 be 8c 6d 62 3c 02 d5 86 bc
       0.118916884 -0.22674805 0.013820063 -0.016458992
0003e0 1b 39 ce 3a 0d 46 aa bd 63 0b 38 bd 0c 73 b4 bc
       0.0015733571 -0.083141424 -0.044932734 -0.022027515
0003f0 79 91 d6 3e 32 e9 b1 3b 8e 0d bf bc eb b9 ac bd
       0.41907862 0.0054294104 -0.023321893 -0.084338985

conv2.bias f4 [32]
000000 6f ea 93 bd a0 28 ab 3c dc 01 a9 3d 22 22 b3 bb
       -0.07222449 0.020893395 0.08252308 -0.0054667154
000010 62 e1 f2 bc ab b8 d3 ba 94 f9 4d bd df 77 2d bb
       -0.029648487 -0.0016153058 -0.050286844 -0.0026469154
000020 16 f5 4a 3d 12 e0 10 bc 62 64 53 bd d3 58 14 bc
       0.04955014 -0.008842485 -0.051609404 -0.0090543805
000030 9d 60 0b 3d f2 f7 5e 3c 66 e7 1e bd 3e 73 ad 3c
       0.034027684 0.013608919 -0.038794897 0.021173116
000040 0a 71 2d bc c0 1e d0 bb f6 17 3d 3a 14 3b bb ba
       -0.010586033 -0.006351322 0.0007213348 -0.0014284574
000050 2c 08 fa 3b 8a 98 02 bb 9b 48 2b bd 30 13 49 bc
       0.0076303687 -0.0019927346 -0.04181729 -0.012272641
000060 d9 8f 33 bd 92 88 55 be 9c 09 0d 3d 6c d0 39 bd
       -0.043838356 -0.20852879 0.034432992 -0.045364782
000070 39 e5 05 3d 90 7c d6 3b af 69 5b 3c 57 57 51 bd
       0.032689307 0.0065456107 0.013391896 -0.051108684

conv3.weight f4 [3, 32, 5, 5]
000000 e7 71 30 3d c9 ad 7f bc b3 44 ac bc df 5b 1f bd
       0.043077376 -0.015605398 -0.021028852 -0.038905974
000010 aa 65 e6 bc c6 d5 d1 3d de f0 23 bd f1 c1 fa 3d
       -0.02812465 0.10245852 -0.04002463 0.12244023
000020 91 9d 71 3d d7 e1 92 3c 16 55 59 bc 0c ab 89 bd
       0.058988158 0.017929954 -0.013264915 -0.06722078
000030 ec b4 72 bc 0d 4a 02 bd 96 0e ad 3c 42 82 5c bd
       -0.014813643 -0.0318089 0.02112512 -0.05383516
000040 f9 27 8f bd 07 b1 1a bd 20 e0 08 3c 2d 2a a5 3c
       -0.06990046 -0.037766483 0.008354217 0.020161713
000050 ab 95 12 3c 08 45 13 3d ea 89 4a 3c aa 66 c6 3b
       0.008946816 0.035954505 0.012361983 0.006054719
000060 20 a9 66 3a eb 89 99 bd c3 f3 3d bc 8b e0 c9 3c
       0.00087990053 -0.07497009 -0.011593762 0.024643203
000070 23 67 92 bb 7d 90 34 bd b5 59 01 bd 61 18 19 3d
       -0.0044678613 -0.044083107 -0.031579692 0.037376765
000080 fb 36 4b 3d cb 2d 0a 3d ce f9 27 39 96 b4 80 bc
       0.04961298 0.033735078 0.0001601942 -0.01571111
000090 4e 69 89 3d 06 b6 5d 3d 58 ae c3 3c 84 33 da 3c
       0.067095384 0.05412867 0.023886845 0.026635893
0000a0 5f a6 5c bb 74 a3 2a 3d 45 1f f5 3b 0a bb dc 3c
       -0.00336685 0.041659787 0.0074805343 0.026944656
0000b0 36 78 bf 3c 51 56 a9 bb 10 d9 a5 bc 82 51 59 bd
       0.02337275 -0.0051677604 -0.020245105 -0.053056248
0000c0 2c 28 3a bb 07 7a 07 bc e6 ee 1f 3d f9 f5 c2 bd
       -0.0028405292 -0.00826884 0.03904619 -0.09519572
0000d0 3a 74 01 be 08 e6 57 3d 53 85 bd 3d 82 8b 90 bd
       -0.12641993 0.05270961 0.09253945 -0.07057859
0000e0 b9 f2 d6 bd 03 b8 f8 bb fa fb 80 bd 50 53 7b bb
       -0.104955144 -0.0075902953 -0.06298061 -0.0038349219
0000f0 32 3f 8d bd 66 42 31 3d 19 af 65 3e 4b dc c4 3c
       -0.06896819 0.043276213 0.22430076 0.024030825
000100 a8 7c 92 bd fc 99 b1 3c 83 21 85 3c 0d 1e e9 3b
       -0.071526825 0.02167987 0.016251331 0.007114178
000110 c3 5e 2d bd 0f 38 f4 ba 2c ff f0 3d 08 f7 c4 3c
       -0.0423267 -0.001863243 0.1176742 0.024043575
000120 74 1f d6 bd 39 96 4d bd f8 3b 6f 3d 33 3a 58 3c
       -0.10455218 -0.05019209 0.0584068 0.0131974695
000130 86 2e b8 3c 46 12 d6 bb fd e3 ab bd e1 ac bb bd
       0.022483122 -0.00653294 -0.08393095 -0.091638334
000140 a6 50 da 3c c8 c8 2a 3d 80 c7 92 3b cc a1 5d bd
       0.026649784 0.041695386 0.0044793487 -0.05410938
000150 83 f1 7a bd 85 50 e9 3a 6e 78 8e 3b 4d 70 3e bd
       -0.06126548 0.0017800486 0.0043478524 -0.046493817
000160 1d 71 77 bc c8 80 58 bc 53 dd 0a 3b 0a 3e a3 bb
       -0.015102652 -0.013214298 0.0021189048 -0.004981761
000170 6c 9c b0 bc 03 4c 74 3c 67 90 57 3c 49 4d a3 3c
       -0.021558963 0.014910701 0.013156987 0.019934313
000180 1b 56 54 3c 02 cf 06 3d fb ec fb 3c 09 d1 c2 bb
       0.012959982 0.03291226 0.03075265 -0.005945329
000190 0e 2c c7 3d 05 ab 00 3e 4c 9c 03 3e 6d 44 c5 3d
       0.097252 0.12565239 0.12852591 0.09632192
0001a0 86 49 8e 3d ab 22 78 3d 13 ad b6 3d 58 09 b3 3d
       0.06947617 0.060579937 0.0891973 0.087420166
0001b0 1f 2a 13 3d c6 2d c3 ba 06 f9 00 3d 13 14 5a 3d
       0.03592884 -0.0014890961 0.031487487 0.0532418
0001c0 cd 44 19 3d d7 7c f5 b9 5d aa 92 bc aa ca d1 39
       0.03741913 -0.00046823054 -0.017903501 0.00040014583
0001d0 cc 30 89 3b e9 d3 f7 3c 09 23 e8 3b e5 06 2d bc
       0.0041867252 0.030252414 0.0070842546 -0.010560726
0001e0 05 bc ee bc 5a 40 a2 bc d9 4f 17 bc 2a 4e 1d bc
       -0.02914239 -0.019806076 -0.009235346 -0.009601155
0001f0 6d 02 a9 bb ff 55 96 3c 09 88 1d 3c d1 ca 85 bc
       -0.00515776 0.018351553 0.009614953 -0.016332062
000200 77 71 1c bd 20 18 f8 bc 98 5c 34 3d 67 16 40 3d
       -0.038194146 -0.030284941 0.044033617 0.046896365
000210 18 ac c7 3c 61 23 0d bc c0 88 d7 3b 99 ff ca 3d
       0.024374053 -0.008614392 0.006577581 0.09912033
000220 3c 92 af 3d 78 39 14 3d 65 a4 01 bd a0 8d 0b bc
       0.08572814 0.03618762 -0.03165092 -0.008517653
000230 a3 7f 42 3e 1c ce 0d 3e e4 94 7c 3c 1a f0 56 bd
       0.18994002 0.13848156 0.015416358 -0.052475072
000240 d8 17 30 3c 6c 31 86 3e 09 01 41 3e 69 1d b0 3d
       0.010747872 0.2620958 0.18848051 0.085993595
000250 67 b7 2e 3c ba ac 0f 3d 6a aa d3 bd 54 24 a5 bc
       0.010663844 0.035076834 -0.10335238 -0.020158924
000260 95 49 92 3d 68 ab c9 3d aa 4e 09 3e 7f 52 2e bd
       0.07142941 0.09847146 0.13408914 -0.042559143
000270 e5 e0 91 3c fb ee 80 3d 73 8e 07 3e 4d 37 27 3e
       0.017807433 0.06295582 0.13237934 0.1632969
000280 2f e7 40 bb 5b e7 89 3d 35 85 40 3d 17 c7 3b 3e
       -0.002943467 0.06733581 0.047002036 0.18337665
000290 24 a7 5f 3e 57 08 a4 3c a4 a2 4d 3d b2 36 01 3e
       0.21841103 0.020023508 0.050203934 0.12618521
0002a0 46 32 66 3e c2 68 63 3e 94 cd be 3a c8 2e 5c 3d
       0.22480115 0.2220793 0.0014557117 0.05375555
0002b0 fa 94 cb 3d c7 9b 2e 3e 86 fa 45 3e 34 63 1d bc
       0.099405244 0.17051612 0.19333848 -0.009606171
0002c0 72 65 1f bd 83 65 fd bc 09 00 53 bd 29 59 7c bd
       -0.038915105 -0.030932194 -0.051513705 -0.061608467
0002d0 55 f1 1a bb dd 5a 66 3b 1f 5f 15 3d 51 13 77 bd
       -0.002364238 0.0035149374 0.036467668 -0.060321156
0002e0 74 b0 46 bd e9 2f 1d 3c 12 c7 29 3d a7 9b 10 3e
       -0.048508123 0.009593942 0.041449614 0.14121877
0002f0 9c 9c 0b 3d 89 51 af bb 6e 53 c2 3c 72 8d a4 bc
       0.0340849 -0.005350296 0.023721423 -0.020086978
000300 32 26 bc 3c 77 e5 0b 3d 15 12 8a 3c 3e 08 3b 3d
       0.022967432 0.03415438 0.016854325 0.045662157
000310 ae 67 af 3c 8b dc 49 bd 5c 7f 45 3b f0 bf 20 3d
       0.021411743 -0.04928259 0.0030135727 0.039245546
000320 e8 d1 cc 3c 89 f9 13 bc 62 5e 54 bd 59 41 15 bd
       0.025002435 -0.009031662 -0.051847823 -0.036439274
000330 fe a6 18 bd d5 92 5b 3d 2a db 14 bd 48 75 59 bd
       -0.03726863 0.053606827 -0.036341824 -0.053090364
000340 b8 4a 0d bd e6 c9 2e bd 89 7d b2 3c fa 57 45 bd
       -0.034495085 -0.042673014 0.021788375 -0.048179604
000350 94 63 94 ba e5 d7 98 bc e5 27 13 bd aa 9f 85 bc
       -0.001132118 -0.018657634 -0.03592672 -0.016311485
000360 0f 62 97 3c 6e e3 7b 3d 31 5b e2 3c 0f 5d 91 bc
       0.018479375 0.06149619 0.027631374 -0.01774457
000370 a7 b8 b3 bb 37 c8 8d bb ee b1 87 3d b8 f1 30 3d
       -0.0054846588 -0.004326846 0.06625734 0.04319927
000380 65 5f 11 3c b0 60 8d bd 6d a5 b4 bd a1 bd b8 bd
       0.0088728415 -0.06903207 -0.08820615 -0.09020544
000390 9f 70 36 bd d0 bb ab bc 2c 98 a1 bc 15 31 b1 bc
       -0.044540998 -0.02096358 -0.019725882 -0.02162985
0003a0 4d 03 40 bd d1 79 23 bd bc a3 09 bd b6 24 1f bc
       -0.046878148 -0.039911095 -0.033603415 -0.009713342
0003b0 b5 af aa bb db 9b d7 bb 25 b5 a2 bc a2 9e f7 ba
       -0.005208934 -0.0065798587 -0.019861767 -0.0018891881
0003c0 ff a4 52 3c e7 2c df 3c 59 f4 8f 3c 05 dc 53 3d
       0.012856721 0.02724309 0.017572569 0.0517235
0003d0 22 7f b3 3c e6 7c 19 3c d8 6c 7e 3b b7 64 9b 3d
       0.021911208 0.009368157 0.00388222 0.07587569
0003e0 c3 78 b8 3d 71 15 54 3d 70 5c 2f 3d 57 be 06 3d
       0.090074085 0.05177826 0.042812765 0.032896366
0003f0 8b 55 05 3d 8c 5b 1c 3d 7f 08 27 3d af 14 f8 3c
       0.032552283 0.038173243 0.040779587 0.0302833

conv3.bias f4 [3]
000000 ea 7f 0c 3b 65 bf 8a 3c f9 e3 9e bc
       0.0021438547 0.016936967 -0.019395815
